checkpoint/sarn_fuse_se_all_bam.pth (torch_old, 649569 bytes, 57 tensors)

fm.weight f4 [64, 3, 3, 3]
-0.14279258 0.007717809 -0.05488319 -0.06093552 -0.14907984 0.022556556 -0.069089785 0.15495673
-0.026185265 -0.1716362 -0.17404556 0.18611568 0.22179581 0.06593882 0.13157676 0.020539261
-0.017882429 0.06663707 -0.083071984 0.009152753 -0.0062238104 -0.10678371 -0.12147336 -0.049910206
-0.14720996 0.1631581 0.14481866 0.013407042 0.05589607 0.066381544 -0.054735024 -0.09373099
-0.08876253 -0.09951836 -0.01285648 0.16521762 0.12305529 -0.008941379 -0.14194301 0.107886754
-0.2731055 0.14140563 0.21996468 -0.010514729 -0.045566607 -0.1575624 -0.19873273 0.1910566
0.1401899 -0.20854484 0.11645169 0.09415654 0.05838358 -0.103782155 -0.005094044 0.116145566
-0.08592037 0.013151697 -0.0859267 -0.055887546 0.12172593 -0.1726323 -0.104670115 -0.052124534
-0.068814315 0.038066875 0.0026840216 0.052757327 -0.05700088 0.053027973 0.18359548 -0.05830029
0.2128626 -0.06754398 -0.044948813 -0.056638513 0.020646106 -0.056978233 -0.15502496 0.0301803
-0.12033555 -0.12906851 0.029005956 -0.22354 0.07886541 0.074643 0.10814147 0.015083767
0.15845667 0.0728931 0.20116742 -0.19839683 -0.124913216 -0.062084556 -0.061990537 0.0071656737
0.0173575 -0.2084056 0.11320853 0.15362413 0.026625846 -0.115230225 0.033857517 0.034521703
-0.18834543 0.005100698 0.05660925 0.17038755 0.055343553 0.013432166 -0.14763126 -0.05182723
-0.18278539 0.20094743 0.10567085 0.007285317 0.020549422 -0.01734781 -0.02638622 -0.04589439
-0.04482877 -0.21626177 0.09775188 0.1018413 -0.15046373 -0.017107835 -0.17596215 0.09372936
-0.16092905 0.06620322 -0.101248614 -0.013268221 0.21186282 0.15937652 0.16736096 -0.13235067
-0.030839544 -0.02112946 0.14036773 0.11753712 0.10234247 0.0036062368 0.093502864 -0.00423993
0.050664406 0.15713267 -0.06428858 -0.12526086 0.03401695 -0.03144969 0.12978736 -0.0932753
-0.06091876 0.058592528 -0.004837422 0.07722754 -0.111226596 -0.013567542 -0.061506238 0.135846
0.021398623 0.072483145 -0.012288264 0.1432347 -0.13876411 -0.04507455 0.10496469 0.09987433
0.023410384 -0.1055403 0.02966416 -0.15970005 0.14767246 -0.17611447 0.0070129028 -0.03088925
-0.0016013087 -0.0500878 0.14202039 0.17360078 -0.094354175 -0.019139232 0.124724045 -0.08289394
-0.12334343 0.11826378 -0.11817203 -0.013796205 0.06753221 -0.1371225 0.00039194862 0.097866856
-0.14838272 0.13199447 -0.028873561 0.13188204 0.0717648 -0.13952854 -0.048996065 0.138194
-0.04809975 -0.17475669 0.11608212 0.01346193 0.03940448 0.11095832 -0.0668266 -0.016071653
-0.00079260726 -0.018772736 -0.19985418 -0.11147042 0.073415555 0.15069892 0.0069873733 0.067878634
0.08564263 0.1307574 0.11909795 -0.22347131 -0.07219913 0.050250847 0.11342189 -0.22442594
0.070177354 -0.16045654 -0.07825129 0.08328227 0.12017014 0.046324737 -0.19883472 -0.018650647
0.11262963 0.037763532 0.048049543 0.12786329 0.01957141 -0.05188242 -0.10708158 -0.025123999
-0.063244805 0.20691745 -0.15559201 0.058079615 -0.008713209 0.024991935 -0.17715523 0.15732503
0.15332401 -0.062338583 -0.006282214 -0.004876778 -0.20932443 0.009389953 0.03709811 -0.21194787
00000000: 3838 12be ade5 fc3b 32cd 60bd 8697 79bd
00000010: 63a8 18be 87c8 b83c f27e 8dbd faac 1e3e
00000020: 7b82 d6bc 66c1 2fbe 0039 32be 1c95 3e3e
00000030: 711e 633e ef0a 873d 0fbc 063e f441 a83c
00000040: 2c7e 92bc 0479 883d a521 aabd 6ef5 153c
00000050: 1bf1 cbbb 6bb1 dabd 06c7 f8bd a56e 4cbd
00000060: 35be 16be eb12 273e 584b 143e 36a9 5b3c
00000070: 47f3 643d 0cf3 873d d531 60bd 09f6 bfbd
00000080: 21c9 b5bd 48d0 cbbd fca3 52bc cf2e 293e
00000090: 6904 fc3d dd7e 12bc 8259 11be bbf3 dc3d
000000a0: 7cd4 8bbe a3cc 103e 6c3e 613e f845 2cbc
000000b0: 0da4 3abd 0a58 21be 9880 4bbe 57a4 433e
000000c0: f18d 0f3e c78c 55be 397e ee3d 25d5 c03d
000000d0: 9f23 6f3d bd8b d4bd f0eb a6bb badd ed3d
000000e0: 05f7 afbd 377a 573c 56fa afbd 57ea 64bd
000000f0: 724b f93d 86c6 30be 495d d6bd 8980 55bd
00000100: 85ee 8cbd 03ec 1b3d 69e6 2f3b 1118 583d
00000110: c179 69bd dc33 593d 7400 3c3e 49cc 6ebd
00000120: a7f8 593e 8054 8abd 3f1c 38bd c9fd 67bd
00000130: 0622 a93c 0262 69bd ddbe 1ebe ad3c f73c
00000140: 7c72 f6bd 892a 04be e69d ed3c abe7 64be
00000150: 3084 a13d 6ede 983d 4679 dd3d e721 773c
00000160: 7742 223e fa48 953d d5fe 4d3e 8a28 4bbe
00000170: 80d2 ffbd 604c 7ebd cae9 7dbd 07ce ea3b
00000180: 5131 8e3c 4768 55be e0d9 e73d a54f 1d3e
00000190: 721e da3c d3fd ebbd 2eae 0a3d a166 0d3d
000001a0: a0dd 40be c223 a73b 1adf 673d 137a 2e3e
000001b0: ecaf 623d 9612 5c3c a62c 17be ca48 54bd
000001c0: 182c 3bbe 2ac5 4d3e f569 d83d abb9 ee3b
000001d0: 4357 a83c ff1c 8ebc ea27 d8bc c2fb 3bbd
000001e0: 5f9e 37bd ba73 5dbe 2332 c83d 2c92 d03d
000001f0: 2a13 1abe bb25 8cbc 6c2f 34be 2ef5 bf3d
00000200: 96ca 24be 8e95 873d 6f5b cfbd f462 59bc
00000210: 91f2 583e 9933 233e ac60 2b3e ef86 07be
00000220: 36a3 fcbc b017 adbc 8fbc 0f3e 4db7 f03d
00000230: ee98 d13d 9d56 6c3b 6e7e bf3d 1cef 8abb
00000240: 7b85 4f3d 63e7 203e bba9 83bd 6244 00be
00000250: 5b55 0b3d 64d1 00bd fae6 043e 1f07 bfbd
00000260: f385 79bd b8fe 6f3d 3d83 9ebb 7929 9e3d
00000270: c5ca e3bd 654a 5ebc f7ed 7bbd 371b 0b3e
00000280: 2a4c af3c 0b72 943d b754 49bc 1eac 123e
00000290: 2e18 0ebe 17a0 38bd baf7 d63d ea8a cc3d
000002a0: 22c7 bf3c 8325 d8bd 4102 f33c 6988 23be
000002b0: 7337 173e 5a57 34be 7ecc e53b 740b fdbc
000002c0: 01e3 d1ba dd28 4dbd cb6d 113e 67c4 313e
000002d0: c33c c1bd e1c9 9cbc 526f ff3d 4cc4 a9bd
000002e0: 7b9b fcbd 4834 f23d 2d04 f2bd 7a09 62bc
000002f0: 544e 8a3d d769 0cbe 747e cd39 6b6e c83d
00000300: a4f1 17be 8f29 073e 3f88 ecbc 160c 073e
00000310: 6cf9 923d 92e0 0ebe 19b0 48bd ba82 0d3e
00000320: 3e04 45bd 6bf3 32be 76bc ed3d 6d8f 5c3c
00000330: 9866 213d 1e3e e33d 62dc 88bd b3a8 83bc
00000340: f9c6 4fba 48c9 99bc 93a6 4cbe 9b4a e4bd
00000350: e55a 963d d150 1a3e 56f6 e43b f403 8b3d
00000360: 6765 af3d 45e5 053e a0e9 f33d aad5 64be
00000370: 23dd 93bd d5d3 4d3d bc49 e83d eacf 65be
00000380: 25b9 8f3d b84e 24be 3642 a0bd e58f aa3d
00000390: c31b f63d 02bf 3d3d 549b 4bbe 3ec9 98bc
000003a0: 5daa e63d efad 1a3d 99cf 443d 98ee 023e
000003b0: 3954 a03c a982 54bd 964d dbbd d8d0 cdbc
000003c0: 7e86 81bd 2be2 533e 8353 1fbe e4e4 6d3d
000003d0: d9c1 0ebc e3bb cc3c 2e68 35be d019 213e
000003e0: f800 1d3e be56 7fbd 08db cdbb 61cd 9fbb
000003f0: 2559 56be 51d8 193c 30f4 173d dd08 59be

bam1.channel_att.gate_c.gate_c_fc_0.weight f4 [4, 64]
0.04741494 -0.07277289 0.013028731 -0.060490377 0.09717336 0.12088516 -0.13121194 -0.034032263
-0.0757681 0.053165775 -0.04315143 -0.078698196 -0.065987945 -0.087908745 -0.112694904 0.22070289
0.017653001 -0.055332083 -0.07599491 0.046241324 0.07797499 -0.060024388 0.039654687 -0.06426717
0.17567237 -0.057852827 0.05686632 0.036274243 -0.18149392 -0.008836058 -0.19142357 -0.142431
-0.013338863 -0.031507578 0.014196112 -0.10519345 0.025634468 0.09119832 0.099837355 -0.11800615
0.14616807 -0.12800188 0.02831755 0.038263295 -0.009486684 -0.043771304 0.016430175 0.003949943
0.05916463 -0.03536169 -0.039267182 -0.078325436 0.036710437 0.08134359 0.119504206 -0.03950616
0.0736767 -0.06072797 -0.028967084 0.025280077 0.045996033 -0.07719595 -0.04499056 0.0050378963
-0.040637728 -0.015230685 0.1291315 0.12445235 -0.08058462 0.008893665 0.012655168 0.043716997
0.08338583 -0.100624874 -0.0009376748 0.013808065 0.11284223 -0.054466344 0.08874261 0.11910901
0.06580307 -0.06647149 0.049976412 -0.010307888 0.043142274 0.062324543 -0.028067363 0.0073492457
0.028580984 -0.028570544 -0.10262999 -0.029063784 -0.16224213 -0.051013052 -0.12087357 -0.0008342199
0.059103813 0.0027836077 -0.039039664 0.031542893 -0.0096051665 -0.09018892 -0.035688967 0.18059278
0.09867059 0.04596916 -0.023851074 -0.11183627 -0.00681853 0.12653235 0.01805166 0.020702701
-0.079923354 -0.07432192 -0.011103258 0.05654918 -0.037755217 -0.092367165 0.052760076 -0.06915487
0.020417893 0.052177787 0.05639624 0.08783389 0.045963157 0.018639898 -0.08664687 0.016746217
0.103971206 -0.07945765 -0.054682087 0.07554314 0.14462438 -0.15845455 0.12491345 -0.05765876
-0.033122 -0.0818301 -0.046596628 0.08314056 0.01200253 -0.13093634 -0.09881188 -0.06210288
0.03740169 0.100942716 0.10573119 0.0051441244 0.093756944 0.04313379 -0.076354735 0.0010745726
-0.026386878 0.06352035 0.019050568 -0.06557369 0.09537794 0.11454258 -0.058056798 0.0057920287
0.05882637 0.012229818 0.061712854 0.08485283 0.12735236 0.05136521 0.07159667 0.0029982827
-0.06806638 0.09181944 0.08627117 0.039999202 -0.084844 -0.060345784 0.15410648 0.093992986
-0.031183707 -0.052303813 -0.104743235 -0.003456575 -0.085082754 0.012073629 -0.13446279 0.060666725
-0.046030864 -0.083414584 -0.12739281 0.057075124 -0.028937439 -0.029442137 -0.081112504 0.088981874
0.018035695 -0.03329579 -0.06698304 -0.08205687 -0.025429608 0.12874494 -0.05168496 0.06472182
-0.103773765 0.065309525 0.13437027 0.14022063 -0.04798356 -0.04112275 0.023758799 0.16169205
0.0028338353 -0.031564333 0.030533418 0.011543872 0.12795532 0.053699005 0.042510044 -0.045809392
0.083631106 -0.074088514 -0.047452364 0.016549002 0.066932134 0.0681084 0.10547297 0.102945
-0.03304368 -0.027504321 0.09739039 0.022855021 0.08633428 0.059346404 -0.051494505 -0.07205272
-0.009549392 -0.08086323 0.015340657 -0.033065185 0.0041670655 0.041585278 -0.033288796 -0.13019077
-0.06156201 0.15063563 -0.0022408343 0.07519565 -0.035317816 -0.04535715 -0.09277011 -0.08365682
0.049454797 -0.108442366 -0.1490315 0.033886645 -0.057004713 -0.064692825 -0.06528131 -0.016573125
00000000: 2b36 423d f409 95bd 7576 553c c2c4 77bd
00000010: d402 c73d a492 f73d 6c5c 06be 6a65 0bbd
00000020: 4e2c 9bbd 5bc4 593d 8ebf 30bd 852c a1bd
00000030: b024 87bd 8009 b4bd 96cc e6bd f0ff 613e
00000040: 079d 903c e5a3 62bd 38a3 9bbd 8b67 3d3d
00000050: 5ab1 9f3d 22dc 75bd f46c 223d 829e 83bd
00000060: 75e3 333e 16f7 6cbd a9ec 683d 4d94 143d
00000070: 8bd9 39be 1dc5 10bc 8a04 44be 6fd9 11be
00000080: 3f8b 5abc 170e 01bd cf96 683c aa6f d7bd
00000090: 60ff d13c 2fc6 ba3d 8777 cc3d 35ad f1bd
000000a0: 15ad 153e ed12 03be 35fa e73c f9b9 1c3d
000000b0: 096e 1bbc 8a49 33bd 9398 863c 866e 813b
000000c0: 9c56 723d 6bd7 10bd a0d6 20bd 1669 a0bd
000000d0: af5d 163d 7897 a63d 9fbe f43d 36d1 21bd
000000e0: cfe3 963d e4bd 78bd 614c edbc 2a18 cf3c
000000f0: 5666 3c3d e918 9ebd 0548 38bd f014 a53b
00000100: bf73 26bd 1f8a 79bc 0c3b 043e e0e0 fe3d
00000110: 8d09 a5bd bcb6 113c 9f57 4f3c 9810 333d
00000120: 31c6 aa3d 6a14 cebd 4ace 75ba 393b 623c
00000130: d419 e73d 1a18 5fbd afbe b53d 6def f33d
00000140: c3c3 863d 3422 88bd 11b4 4c3d 6ae2 28bc
00000150: f4b5 303d 0548 7f3d 87ed e5bc f1d1 f03b
00000160: ab22 ea3c c60c eabc ac2f d2bd 2c17 eebc
00000170: cd22 26be 10f3 50bd 908c f7bd 8daf 5aba
00000180: d716 723d 306d 363b 0ee8 1fbd 1f33 013d
00000190: fd5e 1dbc f8b4 b8bd 982e 12bd 50ed 383e
000001a0: ce13 ca3d 284a 3c3d 5463 c3bc 6a0a e5bd
000001b0: fa6d dfbb b291 013e 13e1 933c b698 a93c
000001c0: dbae a3bd 1736 98bd 70ea 35bc 1da0 673d
000001d0: 37a5 1abd ff2a bdbd f31a 583d 12a1 8dbd
000001e0: 6d43 a73c 60b8 553d beff 663d 41e2 b33d
000001f0: dd43 3c3d b3b2 983c ea73 b1bd 5d2f 893c
00000200: dbee d43d b1ba a2bd 53fa 5fbd 5db6 9a3d
00000210: 6a18 143e e941 22be 9fd2 ff3d 982b 6cbd
00000220: efaa 07bd 8a96 a7bd 1bdc 3ebd 9945 aa3d
00000230: 42a6 443c 2d14 06be e25d cabd 975f 7ebd
00000240: 8432 193d 0ebb ce3d 9889 d83d 0b90 a83b
00000250: a403 c03d 0fad 303d df5f 9cbd acd8 8c3a
00000260: 4b29 d8bc f516 823d f00f 9c3c 804b 86bd
00000270: 8255 c33d 4d95 ea3d f7cc 6dbd 0fcb bd3b
00000280: ebf3 703d 935f 483c 9ec6 7c3d 52c7 ad3d
00000290: a868 023e 5464 523d 46a1 923d d67e 443b
000002a0: 6366 8bbd d50b bc3d f0ae b03d 34d6 233d
000002b0: b1c2 adbd 242d 77bd 17ce 1d3e 657f c03d
000002c0: f974 ffbc 863c 56bd 9f83 d6bd b587 62bb
000002d0: de3f aebd 78d0 453c 9db0 09be ac7d 783d
000002e0: dc8a 3cbd 44d5 aabd 4373 02be 9bc7 693d
000002f0: 350e edbc a330 f1bc 501e a6bd 213c b63d
00000300: 98bf 933c 2b61 08bd 672e 89bd 6f0d a8bd
00000310: c151 d0bc b7d5 033e 9cb3 53bd e08c 843d
00000320: 5787 d4bd 00c1 853d 5c98 093e ff95 0f3e
00000330: 698a 44bd 5470 28bd d0a1 c23c 9a92 253e
00000340: deb7 393b 9a49 01bd 3821 fa3c 8222 3d3c
00000350: b806 033e 7df3 5b3d 031f 2e3d a1a2 3bbd
00000360: c946 ab3d b8bb 97bd 695d 42bd c691 873c
00000370: b713 893d 6b7c 8b3d 3602 d83d d4d4 d23d
00000380: cf58 07bd be50 e1bc 9d74 c73d 743a bb3c
00000390: 07d0 b03d 3715 733d e7eb 52bd 6090 93bd
000003a0: 0e75 1cbc 9f9b a5bd 6157 7b3c 5c6f 07bd
000003b0: e18b 883b 5355 2a3d d559 08bd bb50 05be
000003c0: 7228 7cbd 3a40 1a3e f6da 12bb 2d00 9a3d
000003d0: 6aa9 10bd 6bc8 39bd 41fe bdbd 4454 abbd
000003e0: 1d91 4a3d 0817 debd b79b 18be b9cc 0a3d
000003f0: c67d 69bd ac7d 84bd 35b2 85bd 5dc4 87bc

bam1.channel_att.gate_c.gate_c_fc_0.bias f4 [4]
0.06341501 -0.037690643 0.05818531 0.07221884
00000000: bbdf 813d 8161 1abd b853 6e3d 79e7 933d

bam1.channel_att.gate_c.gate_c_bn_1.weight f4 [4]
0.97739893 1.017369 0.9086764 1.0768766
00000000: d136 7a3f 2639 823f 049f 683f 18d7 893f

bam1.channel_att.gate_c.gate_c_bn_1.bias f4 [4]
0.07783683 0.14593625 -0.08256849 0.119799234
00000000: ea68 9f3d 5070 153e ab19 a9bd 4d59 f53d

bam1.channel_att.gate_c.gate_c_bn_1.running_mean f4 [4]
-0.02164601 0.04103736 0.056788817 0.0809896
00000000: f952 b1bc ca16 283d 649b 683d e0dd a53d

bam1.channel_att.gate_c.gate_c_bn_1.running_var f4 [4]
0.008306864 0.003180583 0.0046307077 0.004652976
00000000: 8319 083c 5471 503b 31bd 973b fe77 983b

bam1.channel_att.gate_c.gate_c_fc_final.weight f4 [64, 4]
-0.05360207 -0.22836201 -0.27915168 0.42099267 0.16639756 0.08349564 -0.46726444 0.1799718
0.04432138 -0.16292424 0.082120545 -0.28674573 0.6493514 -0.32908714 -0.13754365 -0.0704156
-0.04986594 -0.37276986 0.05388299 0.3942777 -0.10523082 -0.47869772 0.30981284 -0.15959565
-0.13209109 -0.2754667 -0.25940448 -0.22254476 -0.4360586 -0.42657942 -0.31361467 -0.3715075
-0.26322502 0.029157288 -0.250956 -0.051449608 -0.06542344 -0.13408804 -0.030175315 -0.16461796
-0.012884156 0.13291804 0.23212507 -0.50085026 -0.04660575 -0.32992548 -0.546729 0.1954772
-0.24784853 -0.006193719 -0.24791932 0.11140442 0.49840844 -0.107106015 -0.4855797 -0.24499874
0.42795485 -0.28728536 -0.36564508 0.39477652 -0.42657444 0.34505314 -0.45856914 -0.20042248
0.31175616 0.581939 -0.16582742 0.22865643 0.26971877 -0.022499774 0.23144415 -0.35131142
0.46208322 0.19667566 -0.21189213 0.051317338 0.0007033677 0.22133566 -0.5397941 -0.2848777
-0.19397983 0.4229006 0.010563004 -0.16883405 0.41771746 -0.40387025 0.00228994 0.1896114
0.2996013 0.08601589 -0.19647078 -0.10105966 -0.31744355 0.29730377 -0.42828014 -0.3981246
0.10163395 0.25078034 0.46174765 -0.062145572 -0.0029487035 -0.39049453 -0.039313383 -0.16242434
0.5403788 0.23565592 -0.09316029 -0.086395726 0.14714907 0.34998745 -0.30418667 -0.03146208
0.05315054 0.0132984985 0.06277489 0.10845683 0.3330969 0.538056 -0.22464837 -0.37505558
0.22180949 0.46347508 0.01599029 -0.14815083 -0.13489409 0.26387113 -0.117294125 0.021460207
-0.41022035 -0.33133954 0.415943 0.37483448 0.1870246 -0.36900657 0.12005879 -0.29200134
-0.4348995 -0.21214288 -0.190703 0.07752933 0.32474077 -0.24450855 0.12696107 -0.55180883
-0.052554514 0.5166417 0.17780966 0.29413295 -0.06980515 0.23835339 0.25076857 -0.43124694
0.53444785 0.092838265 0.33704728 -0.45885435 -0.01498098 -0.1240916 0.30851704 -0.34224534
0.31525895 0.2661952 0.41740525 -0.060969632 -0.18723072 -0.12901737 0.09245918 -0.14086968
0.45900756 -0.4794865 -0.4212215 -0.33848712 0.106797844 -0.18512174 -0.016129134 -0.54065305
0.3283211 0.31927884 0.10907382 -0.3629876 0.10386381 -0.22507466 -0.41738072 -0.4845018
-0.06271494 -0.31737822 0.34779254 -0.19718976 0.4114355 -0.023945242 -0.301051 -0.09880593
0.15500876 0.34409815 -0.34334973 -0.17242518 -0.22459891 -0.32709795 -0.4878304 -0.41642317
0.41498655 -0.07798403 0.61331874 0.37645906 0.40815997 0.09171572 0.19738534 -0.41366452
0.51462615 -0.44834688 0.3740746 -0.3148145 -0.18933621 0.5017366 -0.41787335 0.2014058
0.37161037 0.42530107 -0.24271733 0.04715647 -0.25830162 -0.043586288 0.21900411 0.010539581
-0.29741612 0.2754343 0.07315602 0.24796018 -0.03482469 -0.05780289 0.06856663 -0.04941257
-0.20081057 0.3506604 -0.2958621 0.016283926 0.4874734 -0.1871678 0.08011342 -0.19008425
0.5462006 0.21946965 -0.12105614 -0.080941476 -0.09545723 -0.30215877 -0.2740255 -0.32525712
0.13150804 -0.03526287 -0.29794237 0.24986902 0.41351792 -0.14199771 -0.61116403 -0.4445516
00000000: d88d 5bbd bbd7 69be f8ec 8ebe 5a8c d73e
00000010: 1f64 2a3e c3ff aa3d 493d efbe 874a 383e
00000020: 568a 353d 9dd5 26be d12e a83d 56d0 92be
00000030: e53b 263f 1c7e a8be 3ed8 0cbe 0e36 90bd
00000040: 3a40 4cbd b1db bebe 69b4 5c3d c4de c93e
00000050: 4283 d7bd de17 f5be ca9f 9e3e 0b6d 23be
00000060: e342 07be f909 8dbe aad0 84be c6e2 63be
00000070: 1343 dfbe 9e68 dabe 1a92 a0be 3b36 bebe
00000080: 6ec5 86be 44db ee3c 4e7d 80be d3bc 52bd
00000090: b9fc 85bd 604e 09be 3932 f7bc 9c91 28be
000000a0: 1118 53bc ab1b 083e 32b2 6d3e b937 00bf
000000b0: ace5 3ebd feeb a8be 6ff6 0bbf 2d2b 483e
000000c0: 01cc 7dbe aef4 cabb 90de 7dbe 0028 e43d
000000d0: 642f ff3e 665a dbbd e79d f8be f3e0 7abe
000000e0: e61c db3e 1117 93be d535 bbbe 2620 ca3e
000000f0: f767 dabe ceaa b03e 93c9 eabe 8d3b 4dbe
00000100: 819e 9f3e f4f9 143f aace 29be e924 6a3e
00000110: 9418 8a3e 7251 b8bc b2ff 6c3e 17df b3be
00000120: 2c96 ec3e 5865 493e 40fa 58be 2132 523d
00000130: 3562 383a d1a5 623e f22f 0abf 7ddb 91be
00000140: a6a2 46be 6d86 d83e 7310 2d3c d5e2 2cbe
00000150: 10df d53e 15c8 cebe d112 163b 7e29 423e
00000160: 5765 993e 1929 b03d a32f 49be 5ef8 cebd
00000170: f687 a2be 3338 983e 8947 dbbe fdd6 cbbe
00000180: 7625 d03d 4866 803e 306a ec3e 5b8c 7ebd
00000190: 093f 41bb e6ee c7be 1207 21bd 9152 26be
000001a0: 4456 0a3f c94f 713e d2ca bebd 3ef0 b0bd
000001b0: 3fae 163e 8e31 b33e 5bbe 9bbe 62de 00bd
000001c0: 61b4 593d f2e1 593c 1f90 803d 9d1e de3d
000001d0: ad8b aa3e 0abe 093f 390a 66be 4907 c0be
000001e0: 0722 633e 9b4c ed3e 12fe 823c dab4 17be
000001f0: ad21 0abe 1e1a 873e e737 f0bd 51cd af3c
00000200: 6708 d2be 56a5 a9be 7bf6 d43e 4eea bf3e
00000210: 6083 3f3e 6eee bcbe 62e1 f53d 3381 95be
00000220: 26ab debe fc3b 59be a647 43be b3c7 9e3d
00000230: 6c44 a63e 7360 7abe 1502 023e 5843 0dbf
00000240: 6743 57bd a142 043f bc13 363e 9898 963e
00000250: 01f6 8ebd e912 743e bd64 803e 66cc dcbe
00000260: 93d1 083f fd21 be3d 7691 ac3e f5ee eabe
00000270: c972 75bc bd23 febd f2f5 9d3e c83a afbe
00000280: 9f69 a13e bd4a 883e 24b6 d53e 4bbb 79bd
00000290: 69b9 3fbe 211d 04be 3d5b bd3d 2440 10be
000002a0: 0a03 eb3e 417f f5be 58aa d7be 2f4e adbe
000002b0: d4b8 da3d 8e90 3dbe 3f21 84bc 3d68 0abf
000002c0: b419 a83e 8478 a33e 1862 df3d 83d9 b9be
000002d0: 8db6 d43d f979 66be edb2 d5be 9f10 f8be
000002e0: b170 80bd 667f a2be dd11 b23e 1dec 49be
000002f0: ada7 d23e d028 c4bc 5b23 9abe c35a cabd
00000300: 9eba 1e3e a22d b03e 89cb afbe 3a90 30be
00000310: 42fd 65be 6279 a7be e8c4 f9be 6b35 d5be
00000320: 1e79 d43e 17b6 9fbd 7502 1d3f 3ebf c03e
00000330: 58fa d03e 74d5 bb3d 621f 4a3e d6cb d3be
00000340: 8abe 033f b98d e5be b586 bf3e 5e2f a1be
00000350: 5ae1 41be cf71 003f 7ff3 d5be 523d 4e3e
00000360: b743 be3e 10c1 d93e e48a 78be 2527 413d
00000370: 1c40 84be 8987 32bd 9d42 603e 35ae 2c3c
00000380: ed46 98be b905 8d3e d3d2 953d 46e9 7d3e
00000390: 56a4 0ebd b9c2 6cbd a96c 8c3d d664 4abd
000003a0: 49a1 4dbe c389 b33e 3d7b 97be de65 853c
000003b0: 1d96 f93e eaa8 3fbe 8112 a43d 72a5 42be
000003c0: cdd3 0b3f a7bc 603e 48ec f7bd a5c4 a5bd
000003d0: 157f c3bd 8eb4 9abe 124d 8cbe 1a88 a6be
000003e0: 0baa 063e cd6f 10bd e78b 98be aadd 7f3e
000003f0: 9fb8 d33e d967 11be 3f75 1cbf 449c e3be

bam1.channel_att.gate_c.gate_c_fc_final.bias f4 [64]
0.47292855 0.0022906277 -0.17820795 0.54480916 0.11544566 -0.5054436 0.35022786 -0.4967966
-0.45562327 0.043580737 0.01934794 -0.009544021 -0.1717736 0.14791967 0.58698344 -0.31450814
0.06159976 -0.15499444 0.2147832 0.30912986 -0.34387812 0.09574154 0.5218708 -0.5094649
0.15441965 0.16387749 -0.05891884 0.028277839 0.070733964 0.040860396 0.25835988 -0.2267367
0.36149555 -0.18634446 -0.38541135 -0.50810486 0.49893674 -0.10576386 -0.46086863 -0.02039855
-0.062670395 -0.41301975 0.44193113 0.21040115 -0.4584718 -0.14254992 -0.3337623 -0.1428457
0.46163905 -0.113598034 0.5032087 -0.20630784 -0.19116539 0.3043661 0.18139437 -0.030163037
0.34955654 -0.2971772 0.6394903 0.037462536 0.41374263 -0.53724504 0.27902043 0.0026060196
00000000: b123 f23e 5b1e 163b 257c 36be 9d78 0b3f
00000010: c66e ec3d c064 01bf 1151 b33e 205c febe
00000020: 7447 e9be b781 323d 927f 9e3c 875e 1cbc
00000030: 6be5 2fbe 4178 173e 8c44 163f 3607 a1be
00000040: 0850 7c3d ddb6 1ebe 21f0 5b3e 4546 9e3e
00000050: cb10 b0be 2414 c43d 5399 053f 4b6c 02bf
00000060: 2f20 1e3e 80cf 273e e254 71bd eda6 e73c
00000070: f8dc 903d 3b5d 273d bf47 843e aa2d 68be
00000080: f215 b93e 15d1 3ebe a354 c5be 2913 02bf
00000090: a374 ff3e b99a d8bd f9f6 ebbe dc1a a7bc
000000a0: 5659 80bd 5377 d3be cc44 e23e 6673 573e
000000b0: d1bc eabe 9bf8 11be e4e2 aabe 2546 12be
000000c0: f45b ec3e 16a6 e8bd 49d2 003f 5d42 53be
000000d0: dcc0 43be e0d5 9b3e 72bf 393e 7918 f7bc
000000e0: 13f9 b23e 9c27 98be a3b5 233f 5172 193d
000000f0: 13d6 d33e e488 09bf c4db 8e3e c1c9 2a3b

bam1.spatial_att.gate_s.gate_s_conv_reduce0.weight f4 [4, 64, 1, 1]
0.058268588 -0.0059452946 0.013198903 -0.048222575 -0.02894419 -0.08773701 -0.052283965 -0.039598774
0.012964811 -0.0074358275 0.10242189 -0.009626396 0.13792343 0.1416722 -0.10165949 0.030337086
-0.08252347 0.12939204 0.07959077 -0.027874919 -0.0077148844 -0.022548724 0.046303686 0.0005559529
-0.058153007 0.057133026 -0.021720817 -0.018441722 -0.034212597 -0.106466144 -0.106033474 0.13800873
-0.0876625 -0.0362675 0.06870654 -0.097546004 -0.01675285 -0.022225892 0.11085356 -0.04876794
0.076670736 0.103412576 0.13787419 -0.037421603 -0.020016773 -0.007868354 0.18474104 -0.058928754
0.061034877 -0.011894028 0.069859624 0.12694262 -0.099073455 0.07867745 -0.050564937 0.043525804
0.067612 0.047048315 -0.09629941 -0.0060240645 -0.047368202 -0.10602881 0.08878886 0.063578315
0.058338255 0.118227154 -0.02294438 -0.077596396 -0.07951083 -0.10204382 0.0007214166 -0.029582258
-0.07227974 0.07456993 -0.0027924438 -0.020419132 -0.021171283 0.0131641235 -0.047462113 -0.11756533
0.029226664 0.09125335 -0.11618976 0.017416267 0.0027712486 -0.09875095 -0.10299257 -0.13416503
0.11159839 0.02910637 -0.0030977402 -0.025774963 -0.06149728 -0.026021812 0.06581597 0.03319151
0.020381691 -0.08761143 0.054545727 -0.00033601033 0.12442999 0.062346753 0.07580549 -0.06547572
0.09990345 0.091626786 0.027475543 0.10671833 0.109312765 0.022001682 0.09130529 0.021754615
0.12407375 -0.056475252 0.1208466 0.054686315 -0.033617005 0.14262411 -0.028957168 0.026411412
0.09217806 -0.03978228 0.028363613 -0.0033264423 -0.14355735 -0.025825435 -0.026378542 -0.035606984
-0.13161571 -0.011744319 0.016431933 -0.12928316 0.10607255 -0.07740075 -0.06720636 -0.041302625
-0.0008078542 0.06011639 0.088774025 -0.04586241 0.027055524 0.02117551 0.05333889 0.012827483
0.008481247 -0.011480328 -0.024936952 0.025167434 -0.09907794 0.00090958766 0.0228246 0.09876959
-0.010310197 0.06854609 -0.0017975081 0.07854191 -0.02919401 -0.041697334 0.02596832 0.13701452
-0.062186133 -0.07103463 -0.06669651 -0.04744241 0.13393791 -0.026469892 -0.0029447798 0.08766842
0.088703685 0.117051244 0.003364517 0.100095876 0.033029377 0.028795762 0.11919065 0.114804775
0.13487032 -0.06137012 0.055851724 -0.04860644 0.10365409 -0.01796137 0.09705773 0.040016204
-0.019080788 0.078503095 -0.070477255 -0.019179255 -0.068639696 0.045307253 -0.058985077 0.01503546
-0.14315076 0.12656067 0.12525041 -0.044216488 0.11116521 0.032747194 0.03271521 0.082283795
0.093234956 0.096362434 0.04092078 0.031827327 -0.07468207 0.05065767 0.016096637 -0.044675108
0.07964266 -0.05922425 -0.10996186 -0.017337283 0.030418808 0.032422993 0.06256546 0.0013088944
-0.12576142 -0.11077483 -0.08494818 0.09316369 -0.06852892 0.035583053 -0.068442024 0.12783156
0.020179687 -0.050280355 -0.06259066 -0.11056102 0.09501355 0.12990017 0.06364623 0.1310937
0.12816744 0.09554738 -0.010960012 0.039276965 -0.04860437 -0.039071847 0.06335923 0.10344073
0.1842243 0.0128870355 -0.064025536 -0.0014588246 -0.051629692 0.08948955 0.15816608 0.0050452924
-0.03808412 -0.08907642 -0.02106765 -0.015764078 -0.028325466 -0.081117965 0.012914861 0.038992777
00000000: 0bab 6e3d bfd0 c2bb 3640 583c 0985 45bd
00000010: 5e1c edbc 76af b3bd b627 56bd 5332 22bd
00000020: 5c6a 543c 3ea8 f3bb 91c2 d13d 08b8 1dbc
00000030: cd3b 0d3e 8412 113e da32 d0bd 7b85 f83c
00000040: 1102 a9bd 597f 043e 7c00 a33d f159 e4bc
00000050: 24cd fcbb 1ab8 b8bc efa8 3d3d 5ebd 113a
00000060: d931 6ebd 5204 6a3d dbef b1bc 1813 97bc
00000070: 8222 0cbd ec0a dabd 1428 d9bd 2952 0d3e
00000080: 6688 b3bd 3b8d 14bd 04b6 8c3d 33c6 c7bd
00000090: 463d 89bc 1313 b6bc 3107 e33d e4c0 47bd
000000a0: 8c05 9d3d f9c9 d33d e42e 0d3e 6547 19bd
000000b0: 37fa a3bc 45ea 00bc c12c 3d3e 475f 71bd
000000c0: b5ff 793d 2bdf 42bc 9012 8f3d 3ffd 013e
000000d0: 06e7 cabd a521 a13d 2e1d 4fbd 1d48 323d
000000e0: 2978 8a3d bcb5 403d a038 c5bd 8465 c5bb
000000f0: 2905 42bd a225 d9bd efd6 b53d 5935 823d
00000100: 18f4 6e3d 1421 f23d daf5 bbbc dcea 9ebd
00000110: 93d6 a2bd 5afc d0bd 731d 3d3a 7e56 f2bc
00000120: 6607 94bd 1fb8 983d 6f01 37bb 0646 a7bc
00000130: 666f adbc 56ae 573c a267 42bd 17c6 f0bd
00000140: c26c ef3c 09e3 ba3d e6f4 edbd 8fac 8e3c
00000150: d69d 353b f03d cabd c5ed d2bd 8f62 09be
00000160: b28d e43d 7b70 ee3c 7503 4bbb 0426 d3bc
00000170: 92e4 7bbd b22b d5bc 86ca 863d d2f3 073d
00000180: 81f7 a63c 9f6d b3bd 576b 5f3d 8b2a b0b9
00000190: 27d5 fe3d 4f5f 7f3d e93f 9b3d 2218 86bd
000001a0: 2e9a cc3d d3a6 bb3d 6414 e13c 248f da3d
000001b0: 5fdf df3d df3c b43c 45fe ba3d bc36 b23c
000001c0: 611a fe3d 9852 67bd 6c7e f73d c2fe 5f3d
000001d0: fcb1 09bd 0e0c 123e 9537 edbc bf5c d83c
000001e0: dac7 bc3d bef2 22bd cf5a e83c 7100 5abb
000001f0: b300 13be dd8f d3bc d017 d8bc a1d8 11bd
00000200: 45c6 06be 3f6b 40bc 439c 863c ce62 04be
00000210: 913c d93d 4984 9ebd 7da3 89bd f12c 29bd
00000220: 2dc6 53ba 9b3c 763d 28cf b53d 39da 3bbd
00000230: 8ca3 dd3c 4378 ad3c e179 5a3d 5d2a 523c
00000240: eef4 0a3c fc17 3cbc 9448 ccbc ef2b ce3c
00000250: 60e9 cabd 6571 6e3a a8fa ba3c b647 ca3d
00000260: 1aec 28bc e461 8c3d 5d9a ebba 95da a03d
00000270: 4728 efbc d3ca 2abd 84bb d43c 894d 0c3e
00000280: e3b6 7ebd 9b7a 91bd 2e98 88bd f952 42bd
00000290: 0527 093e 63d7 d8bc 35fd 40bb 808b b33d
000002a0: 47aa b53d 90b8 ef3d 3a7f 5c3b 11ff cc3d
000002b0: d049 073d 17e5 eb3c 3a1a f43d c41e eb3d
000002c0: 721b 0a3e 3c5f 7bbd c7c4 643d 8c17 47bd
000002d0: 9848 d43d b923 93bc 34c6 c63d 08e8 233d
000002e0: 504f 9cbc 3bc6 a03d 6156 90bd d01d 9dbc
000002f0: f892 8cbd 1994 393d 569a 71bd 4a57 763c
00000300: 1d96 12be 1f99 013e a541 003e 591c 35bd
00000310: 96aa e33d ec21 063d 6200 063d 6884 a83d
00000320: f8f1 be3d ab59 c53d 8c9c 273d 5f5d 023d
00000330: eaf2 98bd 6b7e 4f3d 18dd 833c 3ffd 36bd
00000340: b11b a33d 2195 72bd af33 e1bd eb06 8ebc
00000350: dd30 f93c f9cd 043d 5222 803d 358f ab3a
00000360: 9ac7 00be eadd e2bd 50f9 adbd 9bcc be3d
00000370: e458 8cbd 89bf 113d 552b 8cbd 47e6 023e
00000380: df4f a53c c6f2 4dbd 882f 80bd d16d e2bd
00000390: 7796 c23d 8d04 053e f458 823d 6d3d 063e
000003a0: 533e 033e 58ae c33d 9f91 33bc e2e0 203d
000003b0: 6015 47bd cd09 20bd 7cc2 813d bcd8 d33d
000003c0: 4ba5 3c3e 2524 533c d21f 83bd 0836 bfba
000003d0: a879 53bd 4c46 b73d 4af6 213e fb52 a53b
000003e0: 18fe 1bbd b36d b6bd 1096 acbc ab23 81bc
000003f0: cf0a e8bc 2d21 a6bd da98 533c e4b6 1f3d

bam1.spatial_att.gate_s.gate_s_conv_reduce0.bias f4 [4]
-0.049290206 0.03677469 0.12122112 0.035888087
00000000: 87e4 49bd 0fa1 163d c742 f83d 63ff 123d

bam1.spatial_att.gate_s.gate_s_bn_reduce0.weight f4 [4]
1.0004176 0.9923024 1.0255738 0.96485204
00000000: af0d 803f 8807 7e3f 0146 833f 8b00 773f

bam1.spatial_att.gate_s.gate_s_bn_reduce0.bias f4 [4]
-0.001367217 -0.082998134 -0.13441378 -0.22868313
00000000: 3134 b3ba edfa a9bd c4a3 09be e92b 6abe

bam1.spatial_att.gate_s.gate_s_bn_reduce0.running_mean f4 [4]
0.027306551 0.08675748 0.28435278 0.21379213
00000000: fdb1 df3c e8ad b13d b096 913e 53ec 5a3e

bam1.spatial_att.gate_s.gate_s_bn_reduce0.running_var f4 [4]
0.038774002 0.024291715 0.020417469 0.019187668
00000000: 7dd1 1e3d 6bff c63c 8942 a73c 752f 9d3c

bam1.spatial_att.gate_s.gate_s_conv_di_0.weight f4 [4, 4, 3, 3]
-0.03599526 -0.095820546 -0.06860131 -0.12120474 0.085294 -0.010613123 -0.14582194 -0.08389414
0.096897066 -0.059243813 0.06236373 -0.07681023 0.030708894 0.07481772 -0.101287246 0.07657371
-0.07791207 0.046475932 0.19775711 -0.041368157 0.0045927893 -0.06914894 -0.09191136 0.06649571
0.04711398 -0.08748471 -0.13706642 0.16988371 -0.111622505 -0.024301985 -0.059720214 -0.07122547
-0.07017646 -0.09900207 0.09994414 0.0016890299 0.056219604 0.16669263 -0.041080862 -0.05394368
0.21913853 0.08334044 0.06276837 0.00041973128 -0.02955873 0.050019365 -0.08430608 -0.15293226
-0.13859753 0.15499657 0.036064524 0.08540569 -0.07680769 0.053155247 -0.20227152 0.030211193
0.0023626662 -0.050328404 0.113050155 0.005881046 0.21269 -0.12785931 -0.030378474 -0.025710622
-0.023812598 0.11004102 -0.17486553 0.07163062 0.046131432 0.026071496 -0.18341763 -0.059272457
-0.15676942 -0.031238537 -0.16864662 -0.061429568 -0.08786605 0.038123965 -0.12409654 0.0068118656
0.012104452 0.08498593 -0.10970952 0.09642433 0.2378774 0.007592778 0.16008185 0.13269599
0.09648299 0.016699284 -0.063752905 -0.06831106 -0.10778239 0.17244662 0.143788 0.09115428
0.09393098 0.054056894 0.005190396 0.1412946 -0.114546455 0.0025566695 0.29154286 -0.05145528
0.039396554 -0.049475994 -0.1746738 -0.12776402 -0.13963512 -0.02540581 -0.118107066 -0.061208006
-0.08931504 -0.049860675 -0.011637468 -0.075373694 -0.081760526 0.02214033 0.15187506 0.16691831
0.07030446 -0.11268007 0.17595252 0.13841917 0.15872324 -0.11673822 0.022153908 0.037449922
-0.10535652 -0.12901695 -0.029506052 0.13905606 -0.060264315 0.17532845 -0.10749199 -0.018148199
0.13978249 0.0260397 0.036474243 0.16011898 -0.013880417 0.043336224 -0.08800635 0.13008787
00000000: c46f 13bd 903d c4bd d87e 8cbd 313a f8bd
00000010: 9fae ae3d aae2 2dbc 5952 15be b1d0 abbd
00000020: f871 c63d a4a9 72bd 1c71 7f3d af4e 9dbd
00000030: 3891 fb3c 083a 993d b06f cfbd add2 9c3d
00000040: 5d90 9fbd 8c5d 3e3d d780 4a3e a871 29bd
00000050: 1c7f 963b f69d 8dbd 063c bcbd e72e 883d
00000060: 97fa 403d 2f2b b3bd 245b 0cbe fff5 2d3e
00000070: 579a e4bd f514 c7bc 2f9d 74bd a9de 91bd
00000080: adb8 8fbd 99c1 cabd 83af cc3d 7062 dd3a
00000090: 8746 663d 79b1 2a3e 6844 28bd 0cf4 5cbd
000000a0: da65 603e 65ae aa3d b48c 803d 610f dc39
000000b0: 2625 f2bc 1be1 4c3d aba8 acbd 469a 1cbe
000000c0: 83ec 0dbe 6cb7 1e3e 65b8 133d 2ee9 ae3d
000000d0: 5a4d 9dbd 51b9 593d 4420 4fbe 777d f73c
000000e0: f6d6 1a3b 2825 4ebd d786 e73d cab5 c03b
000000f0: 68cb 593e 8ded 02be 47dc f8bc 159f d2bc
00000100: a312 c3bc 305d e13d f30f 33be 13b3 923d
00000110: 50f4 3c3d e493 d53c d5d1 3bbe adc7 72bd
00000120: 2a88 20be f6e7 ffbc b3b1 2cbe 929d 7bbd
00000130: 1ef3 b3bd e027 1c3d 5426 febd 1236 df3b
00000140: c051 463c 1a0d ae3d 63af e0bd 1e7a c53d
00000150: 2296 733e d7cc f83b 7fec 233e 75e1 073e
00000160: e098 c53d f0cc 883c e290 82bd abe6 8bbd
00000170: 04bd dcbd d995 303e 293d 133e 18af ba3d
00000180: e35e c03d c36a 5d3d 3314 aa3b 88af 103e
00000190: 5597 eabd cc8d 273b 1b45 953e c6c2 52bd
000001a0: 485e 213d 57a7 4abd b0dd 32be 92d4 02be
000001b0: 82fc 0ebe d81f d0bc 1ee2 f1bd 3fb5 7abd
000001c0: ceea b6bd b53a 4cbd 14ab 3ebc 865d 9abd
000001d0: 1072 a7bd a35f b53c 2385 1b3e a2ec 2a3e
000001e0: c9fb 8f3d cfc4 e6bd e62c 343e c1bd 0d3e
000001f0: 5888 223e 7314 efbd 1d7c b53c 1765 193d
00000200: 29c5 d7bd 051d 04be adb6 f1bc b664 0e3e
00000210: b7d7 76bd 4d89 333e c324 dcbd 88ab 94bc
00000220: 2423 0f3e 3551 d53c 0466 153d 3bf6 233e
00000230: b06a 63bc 5381 313d ac3c b4bd c135 053e

bam1.spatial_att.gate_s.gate_s_conv_di_0.bias f4 [4]
0.007236395 -0.12017759 -0.13610247 0.13674241
00000000: 481f ed3b ab1f f6bd 725e 0bbe 3406 0c3e

bam1.spatial_att.gate_s.gate_s_bn_di_0.weight f4 [4]
1.0775646 1.0132178 0.89765537 1.0084211
00000000: a3ed 893f 1fb1 813f becc 653f f113 813f

bam1.spatial_att.gate_s.gate_s_bn_di_0.bias f4 [4]
0.01916079 0.052537538 -0.33533663 -0.2525261
00000000: 17f7 9c3c 9a31 573d 3eb1 abbe 1a4b 81be

bam1.spatial_att.gate_s.gate_s_bn_di_0.running_mean f4 [4]
-0.22697304 -0.03540273 -0.010124501 0.20465763
00000000: 9f6b 68be 7402 11bd 3ce1 25bc c591 513e

bam1.spatial_att.gate_s.gate_s_bn_di_0.running_var f4 [4]
0.09352265 0.14073361 0.16078982 0.09886778
00000000: ce88 bf3d 791c 103e 16a6 243e 317b ca3d

bam1.spatial_att.gate_s.gate_s_conv_di_1.weight f4 [4, 4, 3, 3]
-0.08777689 0.0096761305 0.13646339 0.034621153 0.19138393 -0.06017785 0.10597104 0.02581314
-0.107599914 0.0142023675 0.008819054 0.07941166 0.1367441 0.024189567 -0.030676756 -0.12494703
-0.029787986 0.013843216 -0.030775229 -0.11809467 0.1372935 0.059531465 0.115880646 0.18597536
0.030944036 -0.1336782 0.12715995 -0.037689246 0.017019691 -0.029790182 -0.032625563 0.1903747
-0.034149908 -0.037758138 0.14210589 0.107469104 0.11711561 -0.09929328 -0.0020794866 -0.143629
0.16911845 -0.13991545 -0.15760228 -0.086002834 0.15334055 0.07087581 0.033564057 0.03544798
0.0808438 0.21192071 0.11410881 0.10938794 0.016240012 0.05975191 0.012838199 0.018299345
-0.013820569 0.015004467 -0.14104675 -0.045256734 0.051716223 0.019942943 0.028038284 -0.12801346
0.07010197 0.10826089 0.13073774 -0.10715023 0.015816271 -0.03063484 -0.0728334 -0.01833604
0.04385205 0.07348671 0.07285173 0.05084935 0.032988552 0.05135705 0.0010054058 0.09660619
0.090879515 -0.054605767 0.15026888 -0.010407099 -0.053457465 0.14013034 -0.07441559 0.20570506
0.16502166 -0.13488603 -0.21093923 -0.13758859 0.09905974 -0.012902034 0.11575226 0.1919981
0.017127577 -0.14601333 0.14682518 0.14945951 0.13908114 0.04420303 0.1511351 -0.0412752
-0.004013325 -0.042781267 0.10495265 0.028588824 0.06541827 0.040279344 -0.19757982 0.110637106
-0.11204764 0.048237786 -0.06210111 -0.012357696 -0.07330121 0.0047177225 -0.061361875 0.15016752
-0.11094029 0.08813643 -0.0753799 -0.025835298 0.06613429 0.0072982046 0.06508518 0.029787343
-0.022184456 0.1052598 0.13186444 0.09614742 -0.035747983 -0.052969284 0.03241493 0.05650893
0.13960524 -0.010752453 0.047705125 0.10081808 0.07796914 0.15639374 0.08589652 -0.055074092
00000000: 5fc4 b3bd a288 1e3c 0fbd 0b3e e9ce 0d3d
00000010: 26fa 433e 0d7d 76bd 5807 d93d 1476 d33c
00000020: 585d dcbd 0cb1 683c cb7d 103c 95a2 a23d
00000030: a506 0c3e 3329 c63c d24d fbbc 3ae4 ffbd
00000040: ef05 f4bc a8ce 623c 551c fcbc 9edb f1bd
00000050: ab96 0c3e 44d7 733d d552 ed3d 5370 3e3e
00000060: 597e fd3c f0e2 08be 3836 023e 0a60 1abd
00000070: e16c 8b3c 8a0a f4bc 62a2 05bd 96f1 423e
00000080: c6e0 0bbd 47a8 1abd 3584 113e c318 dc3d
00000090: 4fda ef3d 465a cbbd ff47 08bb 7b13 13be
000000a0: 632d 2d3e ff45 0fbe 7e62 21be 4122 b0bd
000000b0: 4e05 1d3e 5627 913d 777a 093d e731 113d
000000c0: 6f91 a53d be01 593e e1b1 e93d c906 e03d
000000d0: c609 853c 6bbe 743d 4f57 523c 82e8 953c
000000e0: ab6f 62bc 4cd5 753c 8f6e 10be 205f 39bd
000000f0: 64d4 533d 625f a33c 8bb0 e53c f615 03be
00000100: 9f91 8f3d e3b7 dd3d 1de0 053e 9471 dbbd
00000110: 2091 813c eaf5 fabc ad29 95bd 7735 96bc
00000120: 359e 333d 3380 963d 4a33 953d 6847 503d
00000130: 011f 073d c55b 523d d2c7 833a 77d9 c53d
00000140: 0a1f ba3d 4caa 5fbd 16e0 193e 8982 2abc
00000150: 37f6 5abd 547e 0f3e 3367 98bd 59a4 523e
00000160: 70fb 283e 901f 0abe 7400 58be 06e4 0cbe
00000170: d5df ca3d 0e63 53bc 850f ed3d 269b 443e
00000180: 224f 8c3c 8584 15be 5759 163e ea0b 193e
00000190: 496b 0e3e 3d0e 353d 29c3 1a3e 2f10 29bd
000001a0: 3682 83bb 693b 2fbd 6af1 d63d 1c33 ea3c
000001b0: 04fa 853d f4fb 243d 5d52 4abe b595 e23d
000001c0: 3c79 e5bd fc94 453d bc5d 7ebd ef77 4abc
000001d0: f21e 96bd 2097 9a3b 9756 7bbd 84c5 193e
000001e0: aa34 e3bd df80 b43d c760 9abd 8ca4 d3bc
000001f0: 6a71 873d c725 ef3b 614b 853d 9604 f43c
00000200: 2dbc b5bc 7392 d73d 7907 073e f0e8 c43d
00000210: 7a6c 12bd 52f6 58bd 85c5 043d e875 673d
00000220: adf4 0e3e 0e2b 30bc 7366 433d b679 ce3d
00000230: 49ae 9f3d ae25 203e 84ea af3d 5f95 61bd

bam1.spatial_att.gate_s.gate_s_conv_di_1.bias f4 [4]
0.087002754 0.14694744 0.011109269 0.015297587
00000000: 802e b23d 6479 163e a703 363c bba2 7a3c

bam1.spatial_att.gate_s.gate_s_bn_di_1.weight f4 [4]
1.0578439 0.9374992 1.0884826 1.0928946
00000000: 6e67 873f f3ff 6f3f 6653 8b3f f8e3 8b3f

bam1.spatial_att.gate_s.gate_s_bn_di_1.bias f4 [4]
-0.034108516 0.05967883 -0.07073726 0.022640208
00000000: 5fb5 0bbd ca71 743d b2de 90bd f577 b93c

bam1.spatial_att.gate_s.gate_s_bn_di_1.running_mean f4 [4]
0.37501255 0.3170231 0.49319458 0.18319318
00000000: a501 c03e da50 a23e 0084 fc3e fe96 3b3e

bam1.spatial_att.gate_s.gate_s_bn_di_1.running_var f4 [4]
0.13880979 0.24129507 0.17906392 0.24815418
00000000: 2724 0e3e 0e16 773e 885c 373e 211c 7e3e

bam1.spatial_att.gate_s.gate_s_conv_final.weight f4 [1, 4, 1, 1]
0.26173097 0.3677026 0.12632307 0.31288713
00000000: 9a01 863e 8443 bc3e d65a 013e be32 a03e

res_se1.conv1.weight f4 [64, 64, 3, 3]
0.016853083 0.054264184 0.03656779 0.04073941 0.010738935 -0.027250526 -0.013747006 0.008517806
-0.00481514 -0.0145002445 0.008902831 0.01775756 0.08924938 -0.10860475 0.020676946 -0.06274312
0.011060068 0.02537979 0.018380756 0.037783954 -0.036847804 0.025533898 0.034210242 -0.024622442
0.00076671736 0.006149488 0.027619513 0.048374742 -0.0051572304 -0.028279074 0.015893133 -0.031054532
-0.04090736 -0.005981526 0.019334914 -0.00033664808 -0.004904533 -0.0009305193 0.03240519 0.0141909225
-0.062129606 0.021375425 0.0033334089 0.044410538 -0.040988505 -0.027383434 -0.0011286922 0.0036509165
-0.022247665 0.023322484 0.035962876 0.011849176 -0.0077203233 -0.03362982 -0.0068581025 -0.006246336
0.01295463 0.041958936 -0.008135369 -0.02589091 -0.0145185115 0.037857667 -0.016792836 -0.023161614
-0.04127271 0.08057696 0.018416347 0.06773088 -0.06467247 -0.024829177 0.03914789 -0.021239713
-0.010840123 0.043718185 0.032309897 -0.03200016 -0.032606598 -0.019106874 0.0496056 0.036500793
-0.0077357693 0.015426196 0.05767068 0.034874883 0.024271794 0.05314608 -0.019595481 -0.0018463427
-0.043162942 -0.07376898 -0.034164768 -0.078505054 -0.03476335 0.061516423 -0.067878366 0.08402085
-0.124061234 0.059859153 0.021426892 -0.027710099 -0.003847262 -0.05196301 0.040545013 -0.033238605
-0.023133809 0.040269207 -0.015467158 0.027840082 0.009521155 0.018989218 -0.009601258 0.00837908
-0.019822668 -0.0074094334 -0.010967039 0.034272324 0.018882504 0.02927333 0.03721653 -0.021070456
0.015066522 -0.021586942 0.026786158 0.029492885 0.0044449735 -0.040269222 0.0225479 0.008134049
0.008963763 -0.044582512 -0.021742465 -0.03732517 -0.047133382 0.033983897 0.020623712 -0.067552455
0.023111584 -0.025003407 -0.034722313 0.013020066 -0.012567449 0.060411837 -0.020491712 0.0132691255
0.013310132 0.02462733 0.007734984 0.033697214 0.0026095582 0.008380587 0.018214906 -0.01511234
-0.0053069973 0.009659845 0.0032994421 0.04137483 0.04757635 0.05627716 0.008998757 -0.028498571
0.012431802 -0.023994384 0.041337233 0.007977708 -0.07260704 -0.035044752 -0.0010395705 0.04325012
-0.03720625 0.04513384 0.064915285 0.016466303 0.025974574 -0.0028608728 0.0091645215 -0.032816924
-0.0294522 -0.026655316 -0.05499887 -0.024954079 0.031213684 0.023043908 0.06786562 0.01906878
-0.017128386 -0.07384636 0.0333049 -0.051233098 -0.031902507 -0.006586219 -0.046115134 0.00204355
-0.036567267 0.045201592 -0.0153681785 -0.0194729 0.05979484 0.016735157 0.06935911 -0.023615928
0.0106597515 0.03354371 -0.03206535 -0.018072413 -0.0354092 -0.07135945 0.010619342 0.036903445
-0.0036921636 -0.0068608494 0.012302356 0.03075745 -0.03594089 -0.03952817 -0.0072025596 0.0067819715
-0.054606352 0.006412619 0.028021956 0.03200151 -0.09243987 0.08093945 0.006746857 0.029225366
-0.05995054 -0.039455622 0.01592465 0.029255746 0.013769151 -0.00022087034 0.0033245545 0.042888362
-0.010878749 -0.019327449 0.018431768 -0.025612785 -0.04581204 0.042846598 0.013663071 -0.02926216
-0.044475712 0.017374678 0.025230609 -0.035996072 -0.03130874 -0.023594309 0.0321608 -0.028097173
0.047819074 -0.032384478 0.018037587 -0.034509175 0.004812523 0.047797833 0.02002073 0.0018311704
00000000: 7a0f 8a3c 1f44 5e3d 1bc8 153d 5ede 263d
00000010: 5cf2 2f3c 7f3c dfbc 1f3b 61bc 458e 0b3c
00000020: 52c8 9dbb 6f92 6dbc 2edd 113c 4d78 913c
00000030: 61c8 b63d 2b6c debd b362 a93c 777f 80bd
00000040: 4a35 353c 47e9 cf3c 3d93 963c 59c3 1a3d
00000050: b9ed 16bd 772c d13c 0a20 0c3d 01b5 c9bc
00000060: 88fd 483a a581 c93b 5142 e23c 9824 463d
00000070: fcfd a8bb 84a9 e7bc 5132 823c 1366 febc
00000080: 7a8e 27bd ad00 c4bb 4164 9e3c 2480 b0b9
00000090: 34b6 a0bb 18ee 73ba 4ebb 043d 0b81 683c
000000a0: 9d7b 7ebd 841b af3c 5275 5a3b d3e7 353d
000000b0: 90e3 27bd 3953 e0bc a0f0 93ba 3744 6f3b
000000c0: bc40 b6bc cb0e bf3c cf4d 133d 0c23 423c
000000d0: c4fa fcbb 6cbf 09bd efb9 e0bb 10ae ccbb
000000e0: a83f 543c 22dd 2b3d 364a 05bc 2c19 d4bc
000000f0: 0ddf 6dbc a410 1b3d 2191 89bc 6dbd bdbc
00000100: 930d 29bd 8905 a53d e1dd 963c 7db6 8a3d
00000110: 0073 84bd 8f66 cbbc 8a59 203d e8fe adbc
00000120: c59a 31bc d711 333d 6257 043d 9a12 03bd
00000130: 7f8e 05bd 0586 9cbc 3e2f 4b3d db81 153d
00000140: 567c fdbb 28be 7c3c 1738 6c3d f7d8 0e3d
00000150: a4d5 c63c b4af 593d b486 a0bc fb00 f2ba
00000160: a0cb 30bd 3114 97bd 5bf0 0bbd 42c7 a0bd
00000170: 0464 0ebd a5f8 7b3d d003 8bbd 2013 ac3d
00000180: d113 febd df2e 753d 7387 af3c 4a00 e3bc
00000190: 5822 7cbb 2ad7 54bd 8712 263d 3425 08bd
000001a0: 1d83 bdbc 53f1 243d f669 7dbc e210 e43c
000001b0: 9efe 1b3c 478f 9b3c 984e 1dbc 6948 093c
000001c0: 2663 a2bc d5ca f2bb 18af 33bc 2361 0c3d
000001d0: 7baf 9a3c 9fce ef3c 5c70 183d f39b acbc
000001e0: 93d9 763c 19d7 b0bc a56e db3c 109b f13c
000001f0: 24a7 913b 57f1 24bd 60b6 b83c ad44 053c
00000200: bfdc 123c 279c 36bd 411d b2bc 47e2 18bd
00000210: ef0e 41bd b332 0b3d 0ff3 a83c f158 8abd
00000220: 8154 bd3c f2d3 ccbc fc38 0ebd 1d52 553c
00000230: b4e7 4dbc 6772 773d 3cde a7bc bf66 593c
00000240: bd12 5a3c 41bf c93c c075 fd3b 1706 0a3d
00000250: 1f05 2b3b bb4e 093c 6d37 953c c099 77bc
00000260: 52e6 adbb 5444 1e3c 743b 583b a778 293d
00000270: 6bdf 423d e182 663d 866f 133c d675 e9bc
00000280: c2ae 4b3c df8f c4bc 3b51 293d efb4 023c
00000290: 00b3 94bd 168b 0fbd 3342 88ba 0a27 313d
000002a0: 9565 18bd 43de 383d 4ef2 843d 57e4 863c
000002b0: a1c8 d43c 7b7d 3bbb ca26 163c 0a6b 06bd
000002c0: bd45 f1bc 405c dabc 7f46 61bd 7f6c ccbc
000002d0: d7b3 ff3c 94c6 bc3c 21fd 8a3d 2136 9c3c
000002e0: d450 8cbc c33c 97bd b86a 083d ccd9 51bd
000002f0: 34ac 02bd 36d1 d7bb 39e3 3cbd 14ed 053b
00000300: 8fc7 15bd 4e25 393d d0ca 7bbc a285 9fbc
00000310: 6feb 743d 2b18 893c 260c 8e3d 3176 c1bc
00000320: 3da6 2e3c 2165 093d f556 03bd 990c 94bc
00000330: 3d09 11bd e724 92bd c0fc 2d3c 1128 173d
00000340: 3af8 71bb fad0 e0bb d28f 493c 0cf7 fb3c
00000350: c136 13bd 4ae8 21bd 7303 ecbb 4d3b de3b
00000360: e9aa 5fbd f220 d23b 4d8e e53c 0414 033d
00000370: 1d51 bdbd 95c3 a53d bd14 dd3b 096a ef3c
00000380: b38e 75bd 389c 21bd 6974 823c bfa9 ef3c
00000390: 0198 613c 6e99 67b9 c5e0 593b b5ab 2f3d
000003a0: c83c 32bc 9954 9ebc 38fe 963c e7d1 d1bc
000003b0: 68a5 3bbd ea7f 2f3d 13db 5f3c 33b7 efbc
000003c0: 2a2c 36bd 5755 8e3c 6cb0 ce3c 9e70 13bd
000003d0: 983d 00bd da48 c1bc 0bbb 033d 0b2c e6bc
000003e0: efdd 433d 96a5 04bd 90c3 933c 7e59 0dbd
000003f0: 5eb2 9d3b a9c7 433d 8402 a43c e203 f03a

res_se1.bn1.weight f4 [64]
1.0520507 1.0317826 0.9220078 1.0845809 0.9866126 0.9662063 1.036641 1.0037736
1.0258682 1.0368694 0.961882 0.96968514 0.9422235 1.0808555 0.9698632 0.92173684
0.92469484 0.9767621 0.9916662 0.9895349 1.0011648 0.92666286 0.9853627 0.92176795
1.0527345 1.0650702 0.9250942 1.0005744 1.0000075 1.0334678 1.0147837 0.9750442
0.99751973 1.058109 1.04965 0.9348366 0.93766457 0.9441372 0.9192731 1.0538781
0.932783 0.98487693 0.9922704 1.1100538 0.91383076 0.9844149 1.0170264 1.0102165
1.0161694 0.96345675 0.9663882 0.9533696 1.0085871 1.0842686 1.0004958 0.97065157
0.9739065 0.999618 1.0075233 0.9803158 0.9024258 0.98588556 1.020327 1.0164311
00000000: 99a9 863f 7411 843f b408 6c3f 8cd3 8a3f
00000010: a592 7c3f 4c59 773f a7b0 843f a77b 803f
00000020: a64f 833f 23b8 843f e63d 763f 493d 783f
00000030: 8f35 713f 7959 8a3f f448 783f f2f6 6b3f
00000040: cdb8 6c3f 150d 7a3f d6dd 7d3f 2952 7d3f
00000050: 2b26 803f c739 6d3f bb40 7c3f fcf8 6b3f
00000060: 01c0 863f 3854 883f f9d2 6c3f d212 803f
00000070: 3f00 803f ac48 843f 6fe4 813f 7f9c 793f
00000080: 745d 7f3f 1e70 873f ee5a 863f 7451 6f3f
00000090: c90a 703f fab2 713f 7b55 6b3f 7ae5 863f
000000a0: deca 6e3f e520 7c3f 6f05 7e3f 3e16 8e3f
000000b0: d0f0 693f 9d02 7c3f ec2d 823f c64e 813f
000000c0: d711 823f 1aa5 763f 3865 773f 0810 743f
000000d0: 6219 813f 50c9 8a3f 3f10 803f 9f7c 783f
000000e0: f051 793f f7e6 7f3f 86f6 803f faf5 7a3f
000000f0: 6105 673f ff62 7c3f 139a 823f 6a1a 823f

res_se1.bn1.bias f4 [64]
0.057963733 0.038083125 0.09878757 -0.058517862 -0.24680439 -0.055926654 0.024954041 -0.03935312
0.09182656 -0.19468652 0.07681146 0.14528531 0.058052044 -0.115967505 -0.08467431 -0.038575783
0.02247508 0.07083543 -0.05285426 0.082453564 -0.03904272 0.05183335 0.04164474 0.10099331
0.09612399 0.22885351 0.06630698 -0.029334543 -0.081393234 -0.23790593 -0.018117074 -0.25932175
-0.056401674 0.08171878 0.04536253 0.08140138 -0.0062744957 0.026746688 0.030630399 0.074108995
0.059632022 -0.07397613 -0.003413126 -0.057044692 0.0702753 -0.06324146 -0.05803569 -0.09825177
-0.14349873 0.00023556655 0.072586834 0.033273216 -0.051414676 -0.077226885 0.091775544 0.036655452
-0.26208335 0.107864775 -0.0060514524 -0.011992148 -0.02760896 -0.13426353 -0.16218756 -0.037868742
00000000: 616b 6d3d 0dfd 1b3d 2351 ca3d 6db0 6fbd
00000010: 4aba 7cbe 5913 65bd 6b6c cc3c bd30 21bd
00000020: 900f bc3d e75b 47be 544f 9d3d acc5 143e
00000030: fbc7 6d3d 5f80 edbd ba69 adbd a401 1ebd
00000040: a91d b83c 2a12 913d b57d 58bd 6add a83d
00000050: 42eb 1fbd 354f 543d ad93 2a3d 95d5 ce3d
00000060: a8dc c43d 9358 6a3e f4cb 873d ff4e f0bc
00000070: 7fb1 a6bd 9d9d 73be 426a 94bc d2c5 84be
00000080: 7105 67bd 2d5c a73d 0fce 393d c4b5 a63d
00000090: 499a cdbb df1b db3c 9aec fa3c 75c6 973d
000000a0: b540 743d cc80 97bd c1ae 5fbb b2a7 69bd
000000b0: 7fec 8f3d bd84 81bd d5b6 6dbd 3938 c9bd
000000c0: 55f1 12be 6a02 7739 68a8 943d 7f49 083d
000000d0: 3298 52bd 2129 9ebd d1f4 bb3d 0724 163d
000000e0: ca2f 86be 35e8 dc3d 434b c6bb b77a 44bc
000000f0: 302c e2bc 617c 09be 7f14 26be 411c 1bbd

res_se1.bn1.running_mean f4 [64]
0.0018663976 -0.00682747 0.012521783 -0.0031103485 -0.039009836 -0.0055273497 -0.0036345918 3.6571786e-05
0.0033685686 -0.015781267 0.0034107526 0.0053421427 0.011880207 -0.0007610539 -0.026112411 0.009016583
0.012108194 -0.001069144 -0.047609773 -0.00668928 -0.0049122097 0.007653151 -0.01120744 0.0234459
-0.0019092018 -0.0015016482 0.51811296 0.0009870342 -0.00997725 -0.022319272 -0.0025153914 -0.031804685
-0.005088548 -0.0023191376 -0.0025496213 0.0039949375 0.008403202 0.0043173726 0.2709724 -0.0034049966
-0.0039247754 -0.011267813 -0.031190693 -0.000108566 0.005082123 -0.011212938 0.00026375605 -0.0114997085
-0.012400175 -0.011147342 0.0037101307 0.0044734413 0.00077792426 -0.00036848526 -0.002497332 0.005849
-0.03388783 -0.0022927653 -0.007992287 -0.004841942 0.072912365 -0.026858604 -0.008772303 -0.0040783603
00000000: e9a1 f43a f8b8 dfbb 2a28 4d3c fdd6 4bbb
00000010: c7c8 1fbd c51e b5bb 5532 6ebb a864 1938
00000020: 34c3 5c3b b747 81bc ef86 5f3b 240d af3b
00000030: 33a5 423c 7681 47ba b2e9 d5bc 4aba 133c
00000040: 7261 463c 8522 8cba 7702 43bd bf31 dbbb
00000050: 9af6 a0bb 49c7 fa3b 699f 37bc 9e11 c03c
00000060: 2f3e faba f4d2 c4ba 0da3 043f 5f5f 813a
00000070: 9f77 23bc e8d6 b6bc 44d9 24bb a145 02bd
00000080: d6bd a6bb acfc 17bb 8c17 27bb f7e7 823b
00000090: 95ad 093c bf78 8d3b e5bc 8a3e 5d26 5fbb
000000a0: 679b 80bb a29c 38bc a083 ffbc edad e3b8
000000b0: f087 a63b 79b6 37bc bd48 8a39 4669 3cbc
000000c0: 1b2a 4bbc 57a3 36bc aa25 733b f295 923b
000000d0: 9ded 4b3a 4131 c1b9 47aa 23bb f8a8 bf3b
000000e0: f7cd 0abd 3842 16bb 15f2 02bc 27a9 9ebb
000000f0: 1453 953d 9306 dcbc b5b9 0fbc c4a3 85bb

res_se1.bn1.running_var f4 [64]
0.00011672981 7.0921196e-05 0.00018985952 4.565984e-05 0.000774907 3.3896376e-05 6.786632e-05 1.3038858e-05
6.851654e-05 0.00012644703 1.5964348e-05 8.634006e-05 0.00011095529 1.4604363e-05 0.0006881124 7.610784e-05
0.0001657006 8.320337e-05 0.0012637852 7.600803e-05 3.902091e-05 8.4091684e-05 0.00011138641 0.00034709077
4.9009705e-05 7.963914e-05 0.17161502 1.2671821e-05 6.2947904e-05 0.0002845895 2.1283875e-05 0.0006100316
3.9196435e-05 3.2836586e-05 6.6581626e-05 6.150067e-05 0.00017547728 4.4355922e-05 0.035791956 1.5088685e-05
0.00028166574 0.00015285642 0.0006980981 3.5056626e-05 7.58767e-05 0.00012659306 8.599665e-06 7.963397e-05
0.00014810945 0.00015910371 3.2530756e-05 2.000399e-05 9.0051035e-06 1.9673196e-05 7.4959135e-05 0.00012975822
0.00083772105 2.4150553e-05 5.228983e-05 7.0617636e-05 0.0030005858 0.00047369962 8.20785e-05 2.8084758e-05
00000000: d7cc f438 87bb 9438 0715 4739 e182 3f38
00000010: 2123 4b3a f52b 0e38 7453 8e38 78c1 5a37
00000020: 8ab0 8f38 de96 0439 2deb 8537 7711 b538
00000030: abb0 e838 4305 7537 7162 343a 169c 9f38
00000040: ebbf 2d39 787d ae38 98a5 a53a 8066 9f38
00000050: 62aa 2338 615a b038 2098 e938 bcf9 b539
00000060: c58f 4d38 f003 a738 d9bb 2f3e 0f99 5437
00000070: e602 8438 f534 9539 c68a b237 87ea 1f3a
00000080: da66 2438 04ba 0938 bda1 8b38 ecf9 8038
00000090: 5300 3839 cf0a 3a38 969a 123d 6925 7d37
000000a0: 89ac 9339 1548 2039 9200 373a c409 1338
000000b0: fe1f 9f38 11be 0439 4847 1037 2901 a738
000000c0: d44d 1b39 14d5 2639 a271 0838 3ece a737
000000d0: a014 1737 de07 a537 6133 9d38 b50f 0839
000000e0: 829a 5b3a eb96 ca37 c751 5b38 8e18 9438
000000f0: 7aa5 443b e35a f839 8f21 ac38 8f97 eb37
