checkpoint/sarn_fuse_se_all.pth (torch_old, 637643 bytes, 30 tensors)

fm.weight f4 [64, 3, 3, 3]
000000 2e 79 1a be a2 70 83 3c d9 dc 11 be 96 68 9c 3d
       -0.15085289 0.016044918 -0.14244403 0.07637136
000010 3c bd 39 3e 3e 8c 27 bd db 9d 77 bd 46 86 77 3d
       0.18138593 -0.04090523 -0.060453277 0.060430788
000020 87 c2 34 3e 0b 8f 39 3e ea e8 3c be 15 84 55 be
       0.17652331 0.18120973 -0.18448225 -0.20851167
000030 30 24 6b bd 47 67 c4 3d 68 75 2c 3c 9e 74 15 3e
       -0.057407558 0.09590011 0.010526039 0.14595267
000040 4e 48 66 3e 56 7e bd 3d f1 ac 03 be f7 82 d9 bd
       0.2248852 0.09252612 -0.1285894 -0.10620683
000050 b3 29 c8 3d f1 e3 96 38 3b 19 9d ba 1b f3 47 ba
       0.097735785 7.195015e-05 -0.0011985669 -0.0007627473
000060 c9 3d 76 bd 12 ef 03 3e d8 37 34 be 24 08 d8 bd
       -0.060117517 0.12884167 -0.17599428 -0.10548428
000070 58 24 e1 bc c4 58 46 3d 0b 27 3b 3e c8 7c 70 3d
       -0.02748315 0.048424497 0.18276612 0.05871275
000080 9f 4f a5 3d 2e d6 19 be ff 98 aa 3d 7a ea bd bd
       0.08071827 -0.1502311 0.08329963 -0.092732385
000090 e4 01 d3 bd 4d 75 3a 3e 2d bd 3b be 01 4b 3c 3e
       -0.10303095 0.18208809 -0.18333884 0.18387987
0000a0 5f 0a 62 3e 97 b9 1e be ba bc 2c be 8f 7d 08 bd
       0.22074269 -0.15500484 -0.16868868 -0.033322867
0000b0 c5 9d 3b 3e 40 f3 15 be ec 4f 19 3c e7 e3 5e 3e
       0.18321903 -0.14643574 0.009357434 0.21766625
0000c0 9f 1e 1b be 59 29 bf 3d 0b 90 36 bd df 30 fb bd
       -0.151484 0.09334058 -0.044570964 -0.12265181
0000d0 df 47 ec bd 25 d0 ba bc 82 79 3a 3e 4d 78 f9 3c
       -0.11537146 -0.02280433 0.18210414 0.030452872
0000e0 69 34 ac bd 9e f7 13 3d 32 f7 06 be 3f 06 19 3d
       -0.08408434 0.036124818 -0.13180235 0.037359472
0000f0 02 2f f2 bc a6 2f d9 bd 09 4e a9 bd 5a b0 b4 3d
       -0.02956343 -0.10604791 -0.08266837 0.08822699
000100 92 b5 0d 3e 1c a1 55 bd c8 b8 42 3e a5 0e e4 bd
       0.13838795 -0.0521556 0.19015801 -0.11135606
000110 b4 dc 15 be 6a 04 32 be b2 89 eb bb 1d 1c 3b 3e
       -0.14634973 -0.17384496 -0.0071880454 0.18272443
000120 80 51 10 be 73 01 14 be e5 19 f4 39 59 fa 85 3d
       -0.1409359 -0.14453678 0.000465586 0.06541891
000130 42 09 3b 3e 31 8c cd 3d 70 3f 24 3d 7a 1b 37 3d
       0.1826525 0.10036505 0.04009956 0.044703938
000140 20 2b 29 be 20 c2 75 3d 74 57 95 bd a0 09 10 3e
       -0.16520357 0.059999585 -0.07292071 0.14066172
000150 b3 10 79 3d 7c ad 27 3e d5 c3 39 3c 2e 7b 4d be
       0.06080694 0.16374773 0.011338194 -0.2006652
000160 0a 94 b3 bd b0 18 00 3e 06 c4 3d 3e d2 b8 eb bd
       -0.087684706 0.12509418 0.18531808 -0.11509861
000170 32 ee 26 be a0 f3 59 be cf 64 0c bc 66 0b 47 3e
       -0.16301802 -0.21284342 -0.0085689565 0.19437942
000180 30 a9 14 bb de 4d 08 be e2 aa 42 bd fe d6 53 3d
       -0.0022683851 -0.13310954 -0.047526248 0.051718704
000190 45 43 02 be 82 06 8f 3d 72 68 6e bd d0 9e fa bd
       -0.12720974 0.06983663 -0.058205076 -0.12237322
0001a0 7b 42 cb 3d 4e 00 23 3e ae c4 0c bd 08 9e 1e 3d
       0.099247895 0.15918085 -0.034367256 0.03872493
0001b0 25 7a 51 3e 4d 0e 3d bd 16 ef 04 bb 19 81 12 be
       0.2045675 -0.046156216 -0.0020284108 -0.1430706
0001c0 b6 22 29 be 3e 4e b6 3d 13 01 1e bc 59 56 3f 3c
       -0.16517147 0.08901642 -0.009643811 0.011678302
0001d0 f8 8b 8c bc 84 0a 48 bd f1 4f 0e 3e de 69 96 bd
       -0.017156586 -0.048838153 0.13897683 -0.07344411
0001e0 30 a7 11 3e 8a b1 b5 bd 34 d0 93 ba 87 c3 1e 3e
       0.14223933 -0.088717535 -0.0011277259 0.15504275
0001f0 ba c9 eb bd 0b 4c 7b bc ce 5b 8d bd 5e 53 68 bc
       -0.11513086 -0.015337954 -0.06902276 -0.014180033
000200 df d1 aa bd de 81 c3 bd 01 31 32 3e db 0e 38 3e
       -0.08340811 -0.095462546 0.17401506 0.17974417
000210 4d c4 c5 bc c4 5e 27 be 56 e4 41 3d 77 46 cd 3c
       -0.024141455 -0.16344744 0.0473369 0.025058014
000220 08 37 08 be f1 0a 9a 3d d2 46 13 3d 8a 28 f5 bd
       -0.13302243 0.07521618 0.03595621 -0.11970623
000230 78 41 b4 3c b0 71 42 3e 83 10 82 bd a8 a2 64 bc
       0.022003874 0.18988681 -0.063508056 -0.013954796
000240 ef 7a ac bd 1f b6 af 3d d0 da f9 3d 27 77 8d bd
       -0.08421885 0.08579659 0.12199938 -0.06907492
000250 91 85 42 be 29 7f 0d be 1c 03 3d 3e 54 0c 4b 3d
       -0.18996264 -0.13818039 0.18458217 0.049572304
000260 12 b5 5a 3d 7a 3a 1e 3d a6 c6 a4 bd 55 84 0b 3d
       0.05339534 0.038629986 -0.08045702 0.03406175
000270 c7 8b d6 bd 60 01 e7 bd e4 51 eb bd 83 19 34 3d
       -0.10475879 -0.11279559 -0.11490229 0.043969642
000280 6d 96 55 3d 87 62 91 3d c8 e9 a6 3d 05 73 a6 3d
       0.05214541 0.07098871 0.08150059 0.08127407
000290 05 a7 1c be 8f be 23 3e 54 e2 e2 3d 40 b8 18 3e
       -0.15298088 0.15990661 0.11078325 0.14914036
0002a0 e4 b7 c3 bd be fd f4 bd 32 cc 9f bd 21 79 44 bd
       -0.09556559 -0.1196246 -0.07802619 -0.04796708
0002b0 2b 17 6d bc 88 fa 1c be 8d 0e b1 bd 80 b4 43 bd
       -0.014470856 -0.15329945 -0.086453535 -0.04777956
0002c0 44 9d 0f 3e cf 5d 3a 3d b0 fb 82 3d 3e 82 14 3e
       0.14024836 0.04549962 0.06395662 0.14502808
0002d0 b3 2e 21 3e 30 af 20 be 33 ae 65 bc 09 5b 06 3e
       0.1574047 -0.15691829 -0.014018583 0.13120665
0002e0 b0 ef df bd df 9e 25 be 04 51 e9 3d 75 8d 22 be
       -0.10934389 -0.16173886 0.11392406 -0.15874274
0002f0 5d 53 82 3d 37 15 c2 bd 1c 1a 3b 3e b7 41 43 3e
       0.063635565 -0.09476703 0.18271679 0.19068037
000300 e0 62 f8 3d d4 fb 47 be 17 9f 20 3e 5b de ac bd
       0.12128234 -0.19529659 0.15685688 -0.084408484
000310 af b5 fc bd 32 cf 13 be a9 30 1d be a2 48 e0 3c
       -0.12339341 -0.14434507 -0.15350594 0.027378384
000320 c0 8a 1a 3e 62 18 bc bd a5 5b 01 be 9f c4 e7 3a
       0.15091991 -0.09184338 -0.12632616 0.0017682499
000330 f8 ac fa 3d 2e dd 12 3e 48 95 6d 3c c9 51 88 bd
       0.122400224 0.14342186 0.014500923 -0.06656224
000340 71 82 b3 bd 58 97 50 bd 2c d7 f5 bd 70 66 09 3e
       -0.08765114 -0.050925583 -0.120039314 0.13417983
000350 a3 c7 09 be ba ba 96 3d 63 1b 15 3e 7d 9a 9f 3c
       -0.13455062 0.07359834 0.14561228 0.019482845
000360 55 05 e9 3d f9 7b da bd e7 1a ef bd d6 78 21 bc
       0.1137797 -0.10668177 -0.11675053 -0.00985547
000370 07 67 88 3d 4f ff 46 3d 49 04 f9 3c 8d 77 bb 3c
       0.06660276 0.048583325 0.030397551 0.022884155
000380 f4 43 9f bd 1b 20 1a 3e 95 9c ee 3d 1e 97 8e bd
       -0.07776633 0.1505131 0.116509594 -0.06962417
000390 61 cc 1b be 27 ec 87 bd 23 a6 46 3e be 9b f4 bd
       -0.15214683 -0.06636839 0.19399314 -0.11943768
0003a0 fa 82 b5 bc ff 87 28 3d bb c0 68 bd a7 26 1c be
       -0.022157181 0.04114532 -0.056824427 -0.1524912
0003b0 8b 01 92 3d 28 0c d9 bd ac ad bd 3d 6e ae 39 3b
       0.071292005 -0.10598022 0.09261641 0.0028332728
0003c0 e2 b0 34 3c c8 1c b1 bd d2 a1 27 3e b0 7b 3b 3e
       0.0110285 -0.08648068 0.16370323 0.18308902
0003d0 c6 73 60 bd fb 5c c6 bd 80 37 9b bd ab 45 ff 3b
       -0.05479791 -0.09685703 -0.07578945 0.0077902875
0003e0 d7 13 1c be a3 bc ff 3a 14 8f 13 3d 26 bf 8e 3d
       -0.15241943 0.0019511174 0.03602512 0.069700524
0003f0 97 53 3d 3d d5 a0 2c 3c e7 82 72 3b 9c 68 85 bd
       0.046222296 0.010536392 0.0037004293 -0.06514093

res_se1.conv1.weight f4 [64, 64, 3, 3]
000000 5c 44 98 bb ae 44 02 3d 87 ea cf 3c 4e 47 81 3d
       -0.004646821 0.03180378 0.025380386 0.063124284
000010 94 bc 38 3d f1 30 53 ba 7f 3f 4d bd 70 ca d6 3c
       0.045101717 -0.0008056304 -0.050109383 0.026219577
000020 86 e2 15 bc 46 03 3f bd 79 c3 a6 bc 7f bc 02 bd
       -0.009148246 -0.04663398 -0.02035688 -0.031918045
000030 41 0d 89 3c b5 2f 8a 3d 5d 0e a8 bb 29 14 74 bc
       0.016729953 0.06747381 -0.0051286654 -0.014897385
000040 56 b1 64 3c 78 02 6a bb c2 36 f6 bc b2 24 88 bd
       0.013958296 -0.0035707038 -0.030055407 -0.06647624
000050 7d d0 0c bd ba 8e 56 bd 78 4d af bd 93 53 a4 3c
       -0.034378517 -0.05238221 -0.08559698 0.020059383
000060 0b 8a 6f bd ea 83 39 bd 0d a0 06 3d f7 2d 61 3c
       -0.058481257 -0.04529182 0.03286748 0.013743869
000070 31 65 99 3c 98 07 ff bb 1d c0 b2 bb f0 f5 07 bd
       0.01872501 -0.0077828877 -0.0054550306 -0.03319353
000080 63 14 94 3c 67 f9 88 bc b8 06 d2 3b e1 a2 65 bc
       0.018076127 -0.016720487 0.0064094923 -0.014015884
000090 98 f0 0e 3c d4 30 e1 bc 79 0a 8a 3c 49 86 c4 bb
       0.008724354 -0.027489103 0.016850697 -0.0059974534
0000a0 a7 9e e4 bd 11 4d 49 bd 70 be b1 3c 92 0e 72 bd
       -0.11163073 -0.049145762 0.021697253 -0.059095927
0000b0 3d db 43 bd 1c b2 05 bd 3c 45 02 3c 36 ed b2 bc
       -0.047816504 -0.03264056 0.007951077 -0.021841627
0000c0 ac 2f 1c bd f2 76 99 bc a5 54 a8 3c 04 23 66 bc
       -0.0381314 -0.018733475 0.020548174 -0.014046434
0000d0 33 53 c6 bc 69 4b ed 3b 58 90 bc bc 36 4f 94 3a
       -0.024209594 0.0072416556 -0.023018047 0.0011315111
0000e0 e8 76 75 3d 17 04 bb 3c 82 d0 db 3c 10 33 83 3d
       0.05992785 0.022829099 0.026832823 0.06406224
0000f0 ee 35 f0 3c 9b d5 0a 3d bc 8a bc 3c e4 7e 33 bd
       0.02932259 0.033895116 0.023015372 -0.043822184
000100 24 18 9b b9 29 3e 2f bd c1 82 7a bc f0 9a 9c 3b
       -0.0002958189 -0.04278389 -0.015289963 0.004779212
000110 18 45 7c bc 17 34 bc 3c b9 11 08 3c 8b e7 7d bc
       -0.015397333 0.022974057 0.008305007 -0.015497099
000120 0f 71 5a bd a2 e0 37 bc ee c5 d5 ba 34 8e 4f 3c
       -0.053330477 -0.01122299 -0.0016309598 0.012668181
000130 ee b9 be bd d1 9b 64 bc b7 cb e3 bc c7 e4 4b bc
       -0.09312807 -0.013953165 -0.0278071 -0.0124446815
000140 55 04 a9 bb 4e d2 5a bb c2 96 dd 3b e1 f7 10 3d
       -0.005157987 -0.0033389512 0.0067623565 0.035392646
000150 a6 be 22 bc 6b 77 36 bc eb 88 83 bd 9b 12 93 bd
       -0.009933149 -0.01113687 -0.064225994 -0.07181283
000160 ef 26 22 3c f8 f2 11 bc ea 0e 3b 3b 1f 82 77 3d
       0.009896978 -0.008908026 0.0028542825 0.060426828
000170 00 0e 04 bc 69 49 7f 3d 20 4c 99 3b ce 99 47 3c
       -0.0080599785 0.06232587 0.0046782643 0.012182666
000180 89 e4 0e 3c 0a 0d 42 bc 68 78 23 bc 26 8d 92 3c
       0.008721479 -0.011843929 -0.009977438 0.01788957
000190 b6 f6 bb 3c 63 e4 01 3d 11 26 1d 3d 6a a5 11 bb
       0.02294479 0.031711947 0.03836638 -0.0022223839
0001a0 62 f2 11 3c 37 cf 0e bc 2d 62 d7 bc 0f e7 97 3b
       0.008907886 -0.008716396 -0.026291931 0.0046356986
0001b0 91 e0 f2 3b 20 48 cd 3c 72 1c a2 bc de 05 de bc
       0.0074120243 0.025058806 -0.019788954 -0.027102407
0001c0 54 02 8c bc 04 2b 07 3c 18 a3 5b 3d aa 18 74 bb
       -0.017090954 0.008250002 0.053622335 -0.0037246146
0001d0 2f 22 e1 3c cc c7 27 3d 19 bd 00 3d d2 36 6f bc
       0.02748212 0.040962026 0.031430338 -0.0146004725
0001e0 24 30 8b 3b 98 c7 cd bc 69 d5 41 bd e9 d5 42 3d
       0.004247682 -0.025119588 -0.047322664 0.047567282
0001f0 c2 1d 8c 3c be 42 16 bd 78 bd 3f bc 7a d8 8c bb
       0.017104033 -0.036684744 -0.011702888 -0.004298267
000200 8b da ea 3b de 60 87 bd 01 96 99 bd af db f8 bc
       0.0071671656 -0.06610273 -0.07499314 -0.03037819
000210 ff 44 11 bd 21 a5 b1 3c 1e be c8 bc 0f e4 d6 bc
       -0.03546619 0.021685185 -0.024504717 -0.026231794
000220 94 eb 52 bd 65 8d 49 bd 7c 2f 43 bd da 31 f8 bb
       -0.051494196 -0.04920711 -0.047652707 -0.007574302
000230 c2 50 2e bd b7 46 37 3d 8d 24 8d 3c 1d 26 38 bd
       -0.042557485 0.044745173 0.017229343 -0.044958223
000240 b7 fb 96 3c ea 00 5e 3d a2 e3 3b bc ad 00 db 3c
       0.018430574 0.05420009 -0.011467846 0.02673372
000250 96 2b a5 3c 68 09 42 bd d0 64 05 bd b1 55 43 3d
       0.020162385 -0.04737225 -0.032566845 0.047689144
000260 c0 6f 86 bd 29 18 ad 3b b6 32 e2 bb af b1 b6 bc
       -0.06564283 0.005282421 -0.006903018 -0.022301523
000270 30 54 e5 3b d9 f3 97 bc d3 7f f8 3c 13 d0 69 3d
       0.0069985613 -0.018548893 0.030334389 0.0570832
000280 43 a4 06 bd 2c 98 e6 bc 61 0a 15 bd 5f 61 20 bd
       -0.032871496 -0.028148733 -0.03638685 -0.03915536
000290 9a eb 24 3d 90 1b 23 3d ae 33 8c 3c db e5 cf bc
       0.04026375 0.039821208 0.017114487 -0.025378158
0002a0 43 a8 3f 3d 88 6d f3 3c 59 5d ad bc 8e 03 46 3d
       0.046791326 0.029715315 -0.021162676 0.048343234
0002b0 0e 55 fa 3c 75 5e 44 3d 8d 3c c4 bb 73 69 2c 3c
       0.030558135 0.047941644 -0.0059886635 0.010523188
0002c0 69 46 ff 3a 7c 3c 7b 3b 41 17 36 bc a0 47 a5 3c
       0.001947594 0.0038335612 -0.011113943 0.020175755
0002d0 0d dc fa bc 8e 60 43 bc db 55 20 3d 68 87 ab bb
       -0.030622507 -0.011924876 0.03914438 -0.0052346475
0002e0 0f f3 1d bd 1f ae 2e 3d ab bd 6f 3d 03 a6 87 3d
       -0.038561877 0.042646524 0.05853049 0.06623461
0002f0 44 35 78 3d 19 ab c4 3c 6a 0a 80 3d 3d 3d 55 bc
       0.060597673 0.024007367 0.06251986 -0.013015089
000300 63 6f 76 3c f7 de 55 3d 7d c4 61 3d f7 79 a7 3c
       0.015041205 0.05221459 0.055119026 0.0204439
000310 a0 df 1f 3d 40 58 84 3d 95 3b 2a bc 08 13 52 bd
       0.039031625 0.06462145 -0.010390182 -0.05128768
000320 2c 76 68 bb 16 fa cb 3c 64 70 04 3d b7 3b a8 3c
       -0.0035470827 0.024899524 0.032333747 0.020536287
000330 6d bd ac 3b ce 02 89 bc 42 91 c6 3c ee a3 d4 bc
       0.0052716048 -0.01672497 0.024239186 -0.025957074
000340 74 d0 6b bb 3a ff 9f bc 63 1a 1a bc 6a 9b 3c 3d
       -0.0035982402 -0.019530881 -0.009405705 0.046046652
000350 df 39 0b ba 04 01 ad 3c ee d4 f4 3c 9b d0 45 3d
       -0.00053110527 0.021118648 0.029886689 0.048294645
000360 0d f9 d0 bc 5f a2 c4 bc e1 32 21 bc 80 40 af 3c
       -0.025509382 -0.024003206 -0.009838791 0.02139306
000370 45 08 86 3b 2c 02 73 3d 06 26 83 3d a2 0d a1 3b
       0.0040903413 0.059328243 0.06403737 0.0049149552
000380 ce fa ee b9 5c 8a 2e 3d 19 b6 60 3d 15 ec 6b 3c
       -0.00045581762 0.04261242 0.05486116 0.014399548
000390 ec cb 18 3d 08 38 12 bd 5c 1a fd bc c7 af e9 3c
       0.03730385 -0.035697967 -0.030896358 0.0285262
0003a0 74 7c d1 bc 50 a7 d0 bc d8 49 6b bc ff 9d 16 bc
       -0.02557204 -0.025470406 -0.014360867 -0.009192943
0003b0 73 c0 3d 3c 01 92 97 bc 06 32 da bc 36 b7 0d bd
       0.011581528 -0.018502237 -0.026635181 -0.03459855
0003c0 10 dd ac 3c f4 3f ba bc 95 69 6d bc ca b3 dd bc
       0.021101505 -0.022735573 -0.014490505 -0.02706327
0003d0 2d 24 64 bc 9a a7 93 bc 6c cc 36 bc 4d 34 1e bc
       -0.013924641 -0.018024255 -0.011157136 -0.009656024
0003e0 8b bf a5 3c b8 44 89 bd 1d cb d6 3b e8 c7 b4 bc
       0.020232936 -0.0670256 0.0065549747 -0.022067979
0003f0 9d 46 db 3c ed 23 09 3c d1 51 11 3d 6d 2a 22 3c
       0.02676707 0.008370382 0.035478417 0.00989781

res_se1.bn1.weight f4 [64]
000000 f9 50 6c 3f 8e fb 77 3f 74 a6 6c 3f e9 1d 7f 3f
       0.92311054 0.96868217 0.9244149 0.99655014
000010 fc 0b 6d 3f aa fc 7d 3f 3f 5a 80 3f 67 87 87 3f
       0.9259641 0.9921366 1.0027541 1.0588197
000020 fc d2 78 3f 3d 68 82 3f a4 36 81 3f 02 b9 86 3f
       0.97196937 1.0188061 1.00948 1.052521
000030 14 9e 72 3f 16 f5 77 3f 66 b8 7f 3f 7f 93 80 3f
       0.9477246 0.96858346 0.99890745 1.0045012
000040 58 63 6e 3f e0 76 73 3f cd e8 79 3f 18 ec 8a 3f
       0.93120337 0.95103264 0.9762085 1.08533
000050 85 7f 7b 3f 67 b9 7f 3f 92 a5 6e 3f 64 f2 6e 3f
       0.98241454 0.99892277 0.9322139 0.9333861
000060 92 22 81 3f 26 4d 81 3f 8b 48 72 3f 16 4e 76 3f
       1.0088675 1.0101669 0.9464194 0.962129
000070 26 96 72 3f fe d7 76 3f ca 0c 72 3f ce 8f 85 3f
       0.9476036 0.9642333 0.94550765 1.0434511
000080 26 b4 78 3f 31 28 81 3f a6 2e 87 3f 0a 02 78 3f
       0.97149885 1.009039 1.0561111 0.9687811
000090 1d 8f 80 3f 99 4e 83 3f b6 c5 80 3f 94 ea 7e 3f
       1.0043675 1.0258361 1.0060337 0.9957669
0000a0 47 4b 80 3f 11 9d 81 3f 3f 66 89 3f ea 15 81 3f
       1.0022973 1.0126058 1.0734328 1.0084813
0000b0 1b 7a 81 3f 66 b8 7c 3f 99 80 7a 3f f6 58 73 3f
       1.0115389 0.9871887 0.97852474 0.9505762
0000c0 55 42 7c 3f d3 1d 77 3f 1b 61 84 3f bd b3 75 3f
       0.98538715 0.96529883 1.0342134 0.95977384
0000d0 50 5e 89 3f 16 76 73 3f 64 3d 82 3f 7c 73 78 3f
       1.0731907 0.9510206 1.0174985 0.97051215
0000e0 de ad 81 3f d4 b0 7e 3f bc 94 7a 3f 2a e3 89 3f
       1.0131185 0.9948857 0.978832 1.077245
0000f0 3f ed 82 3f 33 2b 83 3f 4d cb 6b 3f 8c 5b 8b 3f
       1.0228652 1.0247558 0.9210709 1.0887313

res_se1.bn1.bias f4 [64]
000000 92 4d 08 3d 11 65 ba 3d a2 ed cf 3c d9 5d e3 bd
       0.0332771 0.09101308 0.025381867 -0.111018844
000010 9b 5b d1 3d 91 3d e2 3b 1d 74 42 bd 6e 46 44 bd
       0.102225505 0.006904312 -0.047474016 -0.04791873
000020 1d 0f f0 3c fd 47 62 be 67 43 23 3d b3 c0 07 bd
       0.029304082 -0.22097774 0.0398592 -0.033142757
000030 13 e9 cc 3d 1f 75 99 3d 3e d3 87 bd cd d6 81 bd
       0.10005393 0.07493042 -0.06632088 -0.06339798
000040 bb 84 2e 3d ee 70 b8 3c 66 35 7b be 22 6f 4d 3c
       0.04260705 0.022514787 -0.24532089 0.012538703
000050 24 7d 0b be 38 7f 33 be 7a 76 e3 3d f9 1f eb 3d
       -0.13621956 -0.17528999 0.11106582 0.11480708
000060 65 37 15 be ad 7f ca 3d b4 e1 99 3d 61 d5 bc bc
       -0.14571913 0.098876335 0.075137526 -0.023050966
000070 1a 38 19 3b d8 88 44 be c1 ce 45 3d b6 39 86 bd
       0.0023379386 -0.19192827 0.04829288 -0.06553976
000080 e1 a1 10 be 54 de 7a bb 7f b6 3d bc b2 1f 07 be
       -0.14124252 -0.003827949 -0.011579155 -0.13195685
000090 62 74 43 bd c0 2c 93 bb 77 16 04 bd 98 d9 0d be
       -0.047718413 -0.0044914186 -0.032247987 -0.13852537
0000a0 5a 2b da 3c a6 53 1b bd 9c 04 27 bd b1 1f de 3c
       0.026632 -0.03792157 -0.04077588 0.027114721
0000b0 99 07 3e be c0 5f 8c be 41 11 31 be 5e 3b df 3d
       -0.18557586 -0.274168 -0.17291738 0.10899995
0000c0 89 7c 8d be e4 b3 83 3d 1b 74 8d bc 5b 63 45 3e
       -0.27634075 0.06430796 -0.017267277 0.19276182
0000d0 f5 eb aa 3d 84 6d a7 3d 9b 4e 01 3d eb 76 40 3b
       0.083457865 0.08175185 0.031569105 0.0029367756
0000e0 a6 7c 2d bb d8 58 e4 bc 58 c0 05 3d 21 cf b6 bd
       -0.0026472001 -0.027874395 0.032654136 -0.089262255
0000f0 a2 22 af 3d 04 99 fc 3d b8 9a 7d 3d 32 15 a7 bd
       0.085515276 0.12333873 0.06191513 -0.081583396

res_se1.bn1.running_mean f4 [64]
000000 d9 a8 ef 3c 4e 2d 62 3b 62 cf 8b 3b 36 92 13 bc
       0.029255318 0.0034511867 0.0042666653 -0.009007027
000010 a9 dc d3 3b 4e 13 dd 3a 5e 92 c8 bb e2 22 a5 b8
       0.0064655137 0.0016866715 -0.006120964 -7.8743105e-05
000020 8d cf 77 b9 d5 fe cb bc f6 21 0b bb 40 7e bc bb
       -0.00023633074 -0.024901787 -0.002122996 -0.005752355
000030 e9 27 7a 3b c3 4e 28 3d 6f 90 69 bc 90 a5 20 bc
       0.003817076 0.041090738 -0.014255627 -0.009805098
000040 14 76 09 3e 90 dd 23 3b cc 01 29 bd 43 c0 ce ba
       0.1342395 0.0025003888 -0.04126148 -0.0015773851
000050 e9 24 94 bc b4 d8 ae bc 60 c5 cb 3b 1a 02 a7 3b
       -0.018084006 -0.021343566 0.0062185973 0.005096686
000060 91 49 d6 bb 12 40 be ba 26 60 94 3c a4 12 9a bb
       -0.0065395315 -0.0014514944 0.018112253 -0.004701929
000070 78 df 57 3b 6d 59 32 bc eb 11 30 3c 9a 5e d1 39
       0.0032939594 -0.010885579 0.0107464595 0.0003993407
000080 8a c4 63 bd eb eb 47 bb 93 7f 5e bb 73 7b 8b bb
       -0.055607356 -0.0030505608 -0.0033950552 -0.0042566597
000090 69 77 04 bc 51 3e 95 39 ac 70 ef bb 7f 17 da bc
       -0.00808511 0.00028465924 -0.0073071327 -0.026622532
0000a0 a4 1f 01 bc 08 46 b5 bb 86 60 3d ba 86 de f8 39
       -0.007881079 -0.00553203 -0.0007224161 0.0004746804
0000b0 d6 a7 e6 bc 8a e3 08 bd 97 47 97 bc 95 53 38 3b
       -0.028156202 -0.033420123 -0.018466754 0.002812599
0000c0 8a 36 34 bd cf 87 e4 3b 57 50 f4 bc 0c 6c af 3b
       -0.043997325 0.0069741975 -0.029823465 0.0053534564
0000d0 3d 40 da ba 26 fa 61 3b 62 13 8a bb 6f 39 a1 bb
       -0.0016651225 0.0034481375 -0.0042137364 -0.0049201767
0000e0 22 9d 06 bc b8 ce e5 bb f6 f4 d5 bb 5e 76 05 3a
       -0.008216174 -0.007013168 -0.0065294458 0.00050911854
0000f0 48 55 5d 3b 28 5d 22 bb d3 4e fe 3a 26 2b 84 ba
       0.0033772755 -0.0024774764 0.0019402154 -0.001008366

res_se1.bn1.running_var f4 [64]
000000 ae ee fe 39 ce 64 a4 38 ea c6 fd 37 b7 19 16 39
       0.00048624485 7.838906e-05 3.0252577e-05 0.00014314694
000010 0a 37 f3 37 78 97 b1 37 1b c0 d2 38 41 ce f8 37
       2.8993487e-05 2.1170577e-05 0.00010049363 2.9659948e-05
000020 68 2a 55 38 3e e0 ec 39 46 d9 bf 38 17 3d b5 38
       5.082265e-05 0.000451805 9.14806e-05 8.6421314e-05
000030 8c af 75 38 e8 65 b2 3a d8 99 22 39 f0 60 57 39
       5.8576043e-05 0.0013610693 0.00015506835 0.0002054011
000040 21 cf 15 3c 4a b4 95 38 4a 3b 66 3a cc 89 0e 39
       0.009143622 7.138455e-05 0.00087826385 0.00013593509
000050 d4 e0 3d 39 ed bd b8 39 10 e5 71 38 bc e2 48 38
       0.000181082 0.0003523672 5.767221e-05 4.789488e-05
000060 ba 96 46 38 c1 aa b7 38 f4 ab 8c 39 5d 61 a6 38
       4.7347254e-05 8.7579254e-05 0.00026830996 7.933632e-05
000070 5b 83 bd 38 1a 6e d2 38 9c 1d f4 38 32 c6 a1 37
       9.036689e-05 0.00010034088 0.00011640342 1.9284988e-05
000080 bf aa bc 3a d0 a6 1b 39 28 c7 94 38 9f 9f 07 38
       0.0014394148 0.00014844094 7.094286e-05 3.2335167e-05
000090 fb d6 a9 38 8f d0 ee 37 05 a3 95 38 d3 4d ed 39
       8.098591e-05 2.8468929e-05 7.1352384e-05 0.00045262146
0000a0 b5 ac 96 38 5a 5b b6 38 89 9c 12 39 53 08 d4 37
       7.1847266e-05 8.695452e-05 0.00013981959 2.5276246e-05
0000b0 54 b1 cb 39 f0 e7 4f 3a 86 ea 82 39 f2 c6 b2 38
       0.00038851297 0.0007930985 0.00024970266 8.524758e-05
0000c0 09 6d 7d 3a 91 6d 19 39 4c 66 26 3a 9f 64 07 39
       0.00096674316 0.00014632034 0.0006347641 0.00012912088
0000d0 d6 a4 55 39 cf 8a 8b 37 0e e0 03 39 42 52 2f 39
       0.00020374669 1.6634729e-05 0.000125766 0.00016719944
0000e0 46 9d fa 38 d1 4e e0 38 17 d4 02 39 28 07 0b 38
       0.000119502234 0.00010695833 0.00012476776 3.3146847e-05
0000f0 e8 79 1c 38 e8 c4 b7 38 20 d7 34 38 a2 84 ab 38
       3.7306832e-05 8.762797e-05 4.3115695e-05 8.17862e-05

res_se1.conv2.weight f4 [64, 64, 3, 3]
000000 e2 60 a9 3d 73 3e 34 3d ae ce d5 3c 42 5f 9d 3d
       0.08270432 0.04400487 0.02609953 0.076841846
000010 20 94 30 3c 60 aa d4 3c 2b 00 33 3c d0 51 50 3d
       0.010777503 0.025960147 0.010925333 0.050859272
000020 e2 d0 d0 3b 57 3f f1 3b de 23 c1 bb b5 cc b9 b9
       0.006372557 0.007362287 -0.0058941683 -0.00035438468
000030 10 cb ff 3c 07 06 a9 ba 27 bf 31 3c 09 10 d1 3c
       0.031224757 -0.0012895473 0.010848797 0.025520341
000040 d7 ff e4 bc 97 ea 8f 3c c8 c3 02 3d 3c 93 16 3d
       -0.027954025 0.017567916 0.031924993 0.036761507
000050 10 a3 cf 3b 6f 1d 28 3d 7b ba 7b 3d 70 e5 3e 3d
       0.0063365772 0.041043695 0.06145714 0.046605527
000060 ca bf ec 3c 07 49 63 bc 60 c4 36 3d b2 10 33 3c
       0.028900046 -0.013872392 0.04462087 0.010929273
000070 ae f6 1c bb dc 06 c0 3c a1 8e 78 3c 50 64 64 bb
       -0.0023950743 0.02344077 0.015170724 -0.003484983
000080 77 37 83 3c 07 35 ac 3c b6 f5 03 bd 46 14 96 bd
       0.016017659 0.02102138 -0.03221675 -0.073280856
000090 db 1b 00 3d af 75 c7 3c 4e 37 3a bc 16 c3 a8 3c
       0.031276565 0.024348108 -0.011365725 0.020600837
0000a0 67 12 d5 bb 82 d2 50 3d 82 f4 b6 3b 82 bf 5d 3c
       -0.006502438 0.050982006 0.005583347 0.013534429
0000b0 d8 cd 67 3d 2b 63 1e 3d ac 76 a9 3c 72 28 7e 3c
       0.056592792 0.038668793 0.02068647 0.015512573
0000c0 58 f8 f9 3c 16 1b 5d 3c 79 1f 1d bd fb 57 a6 3c
       0.030513927 0.013495227 -0.038360093 0.020305624
0000d0 64 1b e3 3b a6 2c 07 bc a1 d9 28 3c fd 9d 0b 3d
       0.0069307555 -0.008250391 0.010305793 0.034086216
0000e0 41 f6 cc bc bc cd cb 3c 5c d6 20 bc c3 18 d8 3c
       -0.025019767 0.024878375 -0.009816732 0.026378995
0000f0 91 6b 71 3a 64 5c bb 3a 13 1c e2 3c 65 af af 3c
       0.0009209449 0.0014294502 0.027601277 0.02144594
000100 26 70 26 bb 06 c2 00 3b 6d ca 9a b9 62 bd 03 bd
       -0.0025396436 0.0019646897 -0.00029523988 -0.03216303
000110 7a c8 95 bb 3d 01 97 bc 80 ae f7 bb 2c fd ed 3a
       -0.004571018 -0.018433208 -0.007558644 0.0018157116
000120 6b 02 4c 3c 5c b7 11 3b 82 da da bc b0 56 39 bd
       0.012451748 0.0022234535 -0.02671552 -0.045248687
000130 6b 7c c7 bc 6f 39 fd bc 57 d8 6e 3b 75 b4 a2 3b
       -0.02435132 -0.030911176 0.0036444867 0.00496536
000140 28 a0 0d bd e1 46 eb 3c 8d 83 0f bd 18 b6 99 bc
       -0.034576565 0.028720321 -0.035037566 -0.018763587
000150 4d 37 00 3c 91 f6 d5 ba 36 e4 12 b9 a9 75 0c 3d
       0.007825685 -0.0016324093 -0.0001400866 0.034291897
000160 ca ea 3c bb 08 79 5d 3c f3 b1 db bc 27 e5 45 bb
       -0.0028826469 0.013517626 -0.026818251 -0.00301964
000170 08 0a 1b bd 7e 1d 14 bd 83 1c b6 3a f2 b9 b4 bc
       -0.037851363 -0.03616094 0.0013893995 -0.022061322
000180 31 39 e7 bc 0e 24 a8 3c 5f 5c b5 3b bc 0f 5e 3c
       -0.028225513 0.020525005 0.005534693 0.013553556
000190 01 23 85 3c c9 64 0d bb 97 fd 60 bb ee b8 4a bb
       0.016252043 -0.0021574965 -0.0034330839 -0.003093298
0001a0 b4 08 a9 bc b7 b0 8b 3b 3e 25 94 3c 86 77 03 3c
       -0.020634033 0.0042630094 0.018084165 0.008024102
0001b0 00 79 9f bc 62 9c 97 3c e8 df 0c bd f0 6c d7 3c
       -0.019466877 0.018507186 -0.03439322 0.026297063
0001c0 56 71 9f bc ee 81 21 bc d9 1f d8 bc 27 74 29 bc
       -0.019463222 -0.009857638 -0.026382374 -0.010342634
0001d0 6c 04 ee bc c7 57 81 3c 5d f0 0b bb b1 70 0d bc
       -0.029054843 0.015788926 -0.0021352984 -0.008632825
0001e0 f0 d2 e5 3c a9 8b 01 3d ed 32 26 3d 33 80 94 3b
       0.028054684 0.03162733 0.04057591 0.004531884
0001f0 cc dd 42 3d f6 53 90 bc 0b d4 0d bd f4 5a 08 bd
       0.047574803 -0.01761816 -0.034626048 -0.033289865
000200 0a 7e 1b bd d2 b2 93 bc f8 ae 58 bc c3 02 06 bd
       -0.037961997 -0.018029604 -0.01322531 -0.032717478
000210 25 b8 65 bd 32 9f e1 bc 5b 1e 6b bd 83 b1 37 3d
       -0.056083817 -0.02754173 -0.057401996 0.044847023
000220 af 77 b8 bc db db 2c bd c2 b5 76 bc c7 48 bd 3c
       -0.022518007 -0.042201858 -0.015057983 0.023105992
000230 96 b4 13 3c 2e b2 6b 3d 1a 3e b7 3b 65 2a 3a bc
       0.009015223 0.057542972 0.00559212 -0.011362647
000240 96 5d c8 3c 78 27 9f bc b6 37 42 3d c9 b7 71 3c
       0.024458688 -0.019428 0.04741641 0.01475329
000250 8c a0 4b 3c 97 d7 18 3d e2 6a 25 3d f3 1b 3b 3c
       0.012428414 0.037314977 0.040385135 0.011420238
000260 89 39 57 3d b2 8c 39 bd f4 bd a0 3c 5e eb a2 3c
       0.052545104 -0.045300193 0.019621827 0.019887622
000270 66 e2 34 bc ae 84 28 bc 34 b1 28 ba f8 fd 55 bc
       -0.011040306 -0.01028554 -0.0006435097 -0.013061039
000280 7e 67 8d 3c ac a4 06 3d cd 7e 4c bd e6 1e 60 bd
       0.017261263 0.032871887 -0.049925614 -0.054716967
000290 f0 60 7d bc 80 89 94 3a 7d 60 76 3b af 61 0a bc
       -0.015465006 0.0011332482 0.0037594133 -0.008446141
0002a0 b1 e5 c1 bc 41 ef 4f bc 41 3f 26 bd 64 b7 0c 3c
       -0.023669096 -0.01269132 -0.040587667 0.008588646
0002b0 d7 43 87 bc 35 2d 19 3d 7d f0 22 bd 22 a8 d8 bc
       -0.01651184 0.03739663 -0.03978013 -0.02644736
0002c0 95 f3 88 bc 40 d1 b2 bb 3f d5 ca 3c 9d ed 93 3c
       -0.016717711 -0.0054570735 0.024759887 0.018057639
0002d0 b1 f4 e8 3b c5 99 dd 3b 76 1d 10 3d f0 98 30 bc
       0.0071092476 0.0067627155 0.035184346 -0.010778651
0002e0 f0 ab d0 3c 1b 1e 0a bc 50 72 06 3c f4 43 98 37
       0.025472611 -0.008430029 0.008205965 1.8151455e-05
0002f0 34 0c e6 bc 44 60 47 bd 23 c2 28 bc b9 ff 4f bd
       -0.02808199 -0.04867579 -0.010300192 -0.050780986
000300 06 4e 7f bd e8 a1 5d bc f0 ee 6c bd ee fa f2 bc
       -0.06233027 -0.013527371 -0.057845056 -0.029660668
000310 81 0b 09 3b 13 f5 1f bd 5e 01 d8 bc c7 c2 1a bc
       0.0020911398 -0.03905208 -0.02636784 -0.009445853
000320 b6 6b 23 3d a9 1d 28 bd 3d e6 3d 3d fc b1 58 3d
       0.039897643 -0.04104391 0.04636215 0.052904114
000330 71 52 b3 bc 7a b0 5b 3d 76 97 83 3d fd 87 ed bb
       -0.021889897 0.053635098 0.06425373 -0.007248877
000340 1b 42 ca bb 2c 4b 2c 3d 56 8f 17 3d 64 61 64 3c
       -0.006172431 0.042063877 0.03700193 0.013939235
000350 10 79 ad 3c 34 42 02 3d 44 37 8f 3d 81 21 4c 3c
       0.021175891 0.031801417 0.06992963 0.01245916
000360 7c 1c 14 bc 78 7e 15 bb cc b3 08 bd ef f2 03 bd
       -0.009039994 -0.0022810977 -0.033374593 -0.0322141
000370 c9 2e 50 bc ed 4a a3 3c 35 2b 5b bc 19 a7 c7 3c
       -0.012706467 0.019933188 -0.013377001 0.02437167
000380 13 a6 a5 ba 05 be 9d bc 73 fe af 3c 9e 16 95 3c
       -0.0012637995 -0.019255647 0.021483636 0.018199261
000390 65 a8 12 3d db c9 c3 3c 06 18 2e 3c 03 27 bb bb
       0.035805125 0.023899963 0.010625845 -0.0057114377
0003a0 da 51 f4 3b 23 34 e3 ba 30 3c c0 ba 8a 4b 98 3c
       0.0074560465 -0.0017334264 -0.0014666375 0.018590707
0003b0 c3 ee b0 3c 06 02 d0 3b d5 90 bc 3d c6 db 30 3d
       0.021598225 0.0063478975 0.09207312 0.043178342
0003c0 9a 4b 86 3d 4e 3b a6 3d 8f 0e 1d 3d b9 10 fe bc
       0.065573886 0.0811678 0.038343962 -0.031013833
0003d0 cd b3 3b bc c0 8b f0 bc 9c a8 75 bd ab 03 8c 3b
       -0.011456442 -0.029363513 -0.05997525 0.004272898
0003e0 f1 61 46 3c 01 a0 68 3c 6b fc 33 bd ad 4c 37 bc
       0.012108312 0.014198304 -0.043941896 -0.0111877145
0003f0 7f 1d 22 3d 69 3f 99 bc 7d a2 8d bc e5 e5 92 bc
       0.03957891 -0.018706994 -0.017289395 -0.017931888

res_se1.bn2.weight f4 [64]
000000 2f ae 80 3f df 27 70 3f eb 6e 7a 3f 64 22 6d 3f
       1.0053157 0.9381084 0.978255 0.926306
000010 19 fa 79 3f cf 1a 72 3f cf 4b 7b 3f b7 81 7b 3f
       0.97647244 0.94572157 0.9816255 0.98244804
000020 76 ee 72 3f f5 48 79 3f c2 1f 71 3f bd b1 86 3f
       0.9489511 0.9737695 0.94189084 1.0522991
000030 4d 24 79 3f 16 53 7f 3f 39 ea 68 3f 84 ef 82 3f
       0.97321016 0.99736154 0.90982395 1.0229344
000040 0f fa 74 3f 8a f8 83 3f 28 80 75 3f f1 60 7f 3f
       0.9569406 1.0310223 0.95898676 0.99757296
000050 f7 2e 75 3f c5 2e 76 3f 06 a4 82 3f 68 53 7a 3f
       0.9577479 0.96165115 1.0206306 0.9778352
000060 45 77 74 3f 74 4f 67 3f 0c f3 73 3f df c7 74 3f
       0.9549449 0.9035561 0.95292735 0.9561748
000070 11 5c 79 3f 37 3f 80 3f 12 79 80 3f 19 a8 85 3f
       0.9740611 1.0019292 1.0036948 1.0441924
000080 bf 77 71 3f cf d6 7a 3f 18 bf 76 3f 67 a0 7a 3f
       0.94323343 0.9798402 0.96385336 0.97901005
000090 31 98 82 3f 8b d2 7d 3f 67 9b 6f 3f ca 06 89 3f
       1.0202695 0.9914939 0.935965 1.0705197
0000a0 51 2f 78 3f 63 11 79 3f 0c 9d 7c 3f f2 dd 75 3f
       0.969472 0.97292155 0.98677135 0.96041787
0000b0 ec 2d 69 3f 1f 0e 7c 3f ed af 7d 3f e1 ec 77 3f
       0.91085696 0.9845905 0.99096566 0.96845824
0000c0 86 6f 7a 3f 65 62 81 3f 77 59 80 3f 5b 59 82 3f
       0.9782642 1.0108153 1.0027303 1.0183519
0000d0 fb 12 77 3f 4f f9 7d 3f fd bb 80 3f 88 ed 79 3f
       0.96513337 0.9920854 1.005737 0.9762807
0000e0 ad b5 80 3f 6e b8 73 3f f7 9c 78 3f e1 92 76 3f
       1.0055443 0.9520329 0.9711451 0.9631787
0000f0 b4 e0 79 3f 19 b1 72 3f d6 b6 81 3f 99 1c 79 3f
       0.97608495 0.9480148 1.0133922 0.9730926

res_se1.bn2.bias f4 [64]
000000 8a 01 1f 3d a3 d8 e5 bd 53 16 fd 3d e5 2b 2b be
       0.038819827 -0.11222961 0.12357774 -0.16715963
000010 43 d7 e7 bd e3 99 43 be c0 60 75 3d a4 75 a1 3b
       -0.11320355 -0.19101672 0.05990672 0.004927354
000020 aa e3 8c bc 72 05 29 be 7e 5c 31 bd 9e 18 21 3d
       -0.017198402 -0.16505983 -0.043301098 0.039330117
000030 04 2f 9f bd 7f 45 2d bd 76 21 2e bd 38 d5 b0 bc
       -0.077726394 -0.042302605 -0.04251238 -0.021586046
000040 11 97 93 bb 1f 3e ec bd 74 7d 6e bc ce fa d9 bc
       -0.0045040925 -0.11535286 -0.014556278 -0.02660885
000050 f0 66 d2 bc 1d 81 c8 bd b8 78 4f 3d f7 9d 7e bc
       -0.02568385 -0.097902514 0.050652236 -0.015540591
000060 e6 9b d5 bd 50 ad 2e bd f6 40 f3 3c c0 34 10 bc
       -0.10430126 -0.042645752 0.029694062 -0.008801639
000070 ae 8f a5 3b b9 8e 88 3c c8 c7 a8 bc d0 8a 85 3d
       0.0050525283 0.016669618 -0.020603076 0.06520617
000080 05 83 29 bd 59 5a 4f bc 58 82 ac bc 97 ac ed bb
       -0.041384716 -0.012655818 -0.021058246 -0.0072532403
000090 0a 94 2d 3d 25 cf f1 3c ca 04 99 3c d6 7f ab bb
       0.04237751 0.02951772 0.018679041 -0.005233745
0000a0 61 7e be 3d 80 1b 69 bb ea 43 be bc 2d a4 82 3d
       0.093014486 -0.003556937 -0.023225743 0.0637897
0000b0 fd 6d b6 bc 0b 7d 9a 3d 2c 85 5b bc 2b 78 cf bd
       -0.022269243 0.07543381 -0.01339845 -0.10130342
0000c0 3c 42 31 be 56 a1 9e 3d b2 a3 d3 bd e8 a5 6f 3b
       -0.17310423 0.07745616 -0.10333957 0.0036567394
0000d0 b9 17 a1 3c 94 a3 bc 3d e5 04 3f bd b9 eb 70 bd
       0.019664632 0.092108876 -0.046635527 -0.058818553
0000e0 70 04 59 3c af 6d 74 3d aa 4e 9c bd 6a f6 24 3e
       0.013245687 0.059674915 -0.076321915 0.16109625
0000f0 6a 47 a8 bd fd 4e 0b 3d d1 62 5d bd c5 a0 45 ba
       -0.08216746 0.034010876 -0.054049317 -0.000753891

res_se1.bn2.running_mean f4 [64]
000000 6c 24 13 bd bd 96 38 3e 69 d4 80 be 0e 3d 46 3f
       -0.035923406 0.18026252 -0.25162056 0.7743691
000010 86 fb cf 3c ea 8f d0 3e c2 7f 74 bd 17 ea 22 3e
       0.02538849 0.40734798 -0.05969215 0.1590961
000020 b0 2c 81 bd b0 f8 41 3d 4f d8 cc 3d 4f 5e a4 be
       -0.063073516 0.047356308 0.10002195 -0.32103202
000030 58 f8 99 bd 69 b8 b7 bd b3 d2 ba 3e 5b e5 f4 be
       -0.07518071 -0.0897072 0.36488876 -0.47831234
000040 78 ce 08 3e f0 c6 d5 bd 5b a2 bd bd 09 5f a7 3d
       0.13360012 -0.10438335 -0.092594825 0.081724234
000050 8a 6a 8a bd 15 e6 c1 3e a6 6c 4f 3d ef 2b c5 3d
       -0.06758602 0.3787085 0.050640725 0.0962752
000060 57 38 ff 3e bb 65 29 3f f9 4d 48 3d 03 d2 48 be
       0.4984767 0.66170853 0.048902486 -0.19611363
000070 03 98 f2 bd db 70 2f 3e cc 78 80 bd a9 b5 88 be
       -0.118454 0.17132895 -0.0627304 -0.26701096
000080 26 9d 00 3f f4 2b b8 be bb e7 12 be e5 99 d0 3d
       0.5023979 -0.35971034 -0.1434621 0.10185603
000090 1d 14 54 be 4a 9b 8f be 60 40 e6 3c 91 06 83 be
       -0.20710798 -0.28048164 0.028106868 -0.25590947
0000a0 48 d3 94 be 36 c6 fb bd ca 2f 0a be 53 d9 50 be
       -0.29067445 -0.12293665 -0.13494793 -0.20395403
0000b0 7b 69 33 3e d4 aa 8d be 4b 42 a2 3d fa 77 09 3e
       0.17520706 -0.27669394 0.07922801 0.13424674
0000c0 7b 79 6b 3e 8a a7 3f be 3f d8 07 3f 86 28 83 be
       0.2299556 -0.18716255 0.5306434 -0.25616854
0000d0 ba 26 ea 3b 18 8d 64 bf a4 72 b3 be 4a f6 9d 3e
       0.00714573 -0.8927779 -0.350484 0.30851966
0000e0 5e 7d 1d bf ff 9d eb bc e9 90 47 bd 43 08 f6 be
       -0.6151942 -0.028761862 -0.04872218 -0.48053178
0000f0 25 e6 c3 bb 2a f3 df 3e 2c f2 5e be c9 76 fe bc
       -0.005978363 0.43740207 -0.21772069 -0.0310625

res_se1.bn2.running_var f4 [64]
000000 57 f1 b4 3e 92 ef d8 3d 12 78 3a 3e f4 c4 77 3e
       0.35340378 0.105925694 0.18209866 0.24196225
000010 0d b9 34 3d bc 91 39 3e 36 dc 43 3f 75 15 3d 3d
       0.04412179 0.18122 0.7650789 0.04616304
000020 a8 31 c1 3d 72 ef f4 3c 94 ed cf 3d ee 2c 0a 3e
       0.09433299 0.029899333 0.10152736 0.13493702
000030 81 97 e5 3d 14 83 0d 3e cf ef 89 3e 00 0e 72 3e
       0.11210538 0.13819534 0.26940772 0.23638153
000040 43 13 36 3d 42 c7 08 3e 5d 7a fb 3d 76 4c 93 3d
       0.044451963 0.13357261 0.12279198 0.07192318
000050 19 0a 95 3e 8d 7b 44 3e 11 de 63 3e 4f da 18 3d
       0.29109266 0.19187756 0.2225268 0.03731757
000060 a6 c5 07 3e 37 4c a2 3e ab 15 e4 3d 94 fb 99 3d
       0.1325899 0.31698772 0.11136945 0.07518688
000070 86 08 51 3e a5 54 3a 3d d0 aa a3 3d aa 54 23 3e
       0.20413408 0.04549088 0.07991564 0.15950266
000080 c4 03 1a 3f 0c 18 65 3e d4 ea f5 3d ba 1c 5c 3e
       0.60161996 0.22372454 0.120076805 0.21495333
000090 26 2d 92 3d d2 4a 86 3d 92 07 00 3e 12 1d e1 3d
       0.07137518 0.065572396 0.12502888 0.10991873
0000a0 d0 aa 93 3e 16 36 d0 3d 13 ba fb 3d 3c a2 f3 3d
       0.28841257 0.10166566 0.1229135 0.11896178
0000b0 b9 56 16 3e 52 a4 5f 3e 3f 25 1b 3e d2 4b 96 3d
       0.1468152 0.21840027 0.15150927 0.0733868
0000c0 63 8c b4 3d 4a 58 c3 3d 79 6b 05 3f dd fb ce 3d
       0.08815839 0.09538324 0.52117115 0.10106633
0000d0 fc 6e 5b 3d ab b2 10 3f 86 03 b3 3d 6b b6 1d 3e
       0.05357264 0.56522626 0.087409064 0.15401618
0000e0 f3 f4 58 3e 0f 46 11 3e bc 82 36 3d 24 38 3c 3e
       0.2118719 0.14186881 0.04455827 0.18380791
0000f0 c7 92 8c 3c 33 d5 11 3e e3 40 0c 3e 34 e3 1a 3e
       0.017159833 0.14241485 0.13696627 0.15125734

res_se1.se.compress.weight f4 [16, 64, 1, 1]
000000 8c cc 16 bd d6 4c b6 bd 7a 08 87 3d 03 ca dd bc
       -0.036816165 -0.08901374 0.06593414 -0.027073866
000010 09 af 3c 3e fc 7e 80 3d 3a 8a 16 be f7 84 07 3d
       0.18426146 0.0627422 -0.14701167 0.03308579
000020 78 c4 49 bc 0c cb f8 bd f0 1d e6 bd eb cf 29 3d
       -0.012314908 -0.12148103 -0.11236179 0.04145805
000030 f4 1d f6 bd 59 e6 e3 3b 1c 70 62 bd 69 f4 9a 3b
       -0.12017432 0.00695495 -0.055282697 0.004728843
000040 17 b2 84 be d9 e4 1c 3e f0 21 be 3d 95 44 0b be
       -0.25917122 0.15321673 0.09283817 -0.1360038
000050 c7 66 0d be f4 00 02 3c 61 e6 8d 3c 81 63 00 3e
       -0.13808738 0.007934798 0.017321767 0.12537958
000060 a0 b8 0e 3e 70 6a 65 3d 35 b1 84 3d 94 4d 98 3d
       0.13937616 0.05600971 0.06479112 0.07436672
000070 e2 6c e9 bb 24 09 3e be 66 fd db 3d 98 c3 a0 bd
       -0.0071235755 -0.18558174 0.10741691 -0.078498065
000080 e2 25 ce bd 8c ff f5 bc 7b 77 3d 3d b1 d5 1d be
       -0.10065819 -0.03002908 0.046256524 -0.15413548
000090 07 aa 79 bc 3d 00 3e bd f7 0b 87 3d 2f b0 23 bd
       -0.015238292 -0.046386946 0.06594079 -0.039962944
0000a0 fb 44 30 3d 8d 1d ad bc 3d fc f3 ba 60 4c 67 3d
       0.043034535 -0.021132255 -0.0018614602 0.05646932
0000b0 c0 c9 aa 3b 4a ce 2d 3d fe ab 34 bd 88 8e 86 3c
       0.0052120388 0.04243306 -0.044109337 0.016425386
0000c0 1d f3 6c 3e 09 ae 0b 3d 47 68 88 bd c7 c6 c5 3d
       0.23139615 0.03410152 -0.06660514 0.096570544
0000d0 8c 33 d0 3d b7 92 6f 3d 82 47 8a bb 4c b4 cd bd
       0.10166082 0.058489528 -0.00421995 -0.100441545
0000e0 7d 02 08 3e 98 2e 8e 3a 6a 81 a2 bc d1 22 e1 bc
       0.13282199 0.0010847626 -0.0198371 -0.027482422
0000f0 eb a3 d3 3d 98 ef f7 bb 97 93 c4 bd 2b bc 81 bd
       0.10333999 -0.0075664036 -0.09598463 -0.06334718
000100 98 16 40 3d b6 a3 5f 3c 02 8c 61 bd a4 ac 6c bb
       0.046896547 0.013649872 -0.055065162 -0.0036113644
000110 d7 81 9e bc 3a 45 90 bd e0 0e b2 3d 31 f3 f9 bc
       -0.019349022 -0.07044454 0.086942434 -0.03051147
000120 35 18 b8 bc ee 28 0e 3d 37 0b e9 3c 20 56 42 3c
       -0.02247248 0.034707002 0.02844773 0.011861354
000130 86 83 d5 3d 2c 54 4c 3c ef d7 c1 3d 9b 81 25 be
       0.10425477 0.01247124 0.09465014 -0.16162722
000140 5f f9 09 3e a3 89 eb bd fd b4 ac 3d ab f6 9e bd
       0.13474034 -0.115008615 0.08432958 -0.07761892
000150 1c ca 27 3d 44 a2 77 bd 90 33 c2 3c de cb c6 3d
       0.04096423 -0.060457483 0.023706228 0.09706853
000160 5b 4c 46 3d 97 43 18 bc 68 34 11 3e 12 5c 2e bd
       0.048412662 -0.009293458 0.14180148 -0.042568274
000170 bc 49 02 3e de 1d 8c bd 73 fe 79 3b 08 5b 0b bb
       0.1272344 -0.06841634 0.0038146048 -0.0021263976
000180 7b 0c cb 3d 1e 08 b5 3c c8 2c cc 3c 80 b0 e0 3d
       0.0991449 0.022098597 0.024923697 0.10971165
000190 ac 48 e1 bd 5b 94 a6 bd dd 21 85 bb f1 72 00 be
       -0.11000189 -0.08133765 -0.0040628747 -0.12543847
0001a0 09 54 ca 3d 0f 76 b2 bd 84 f8 12 bb ea c3 c2 bd
       0.0987931 -0.08713924 -0.002242596 -0.09510024
0001b0 f0 41 ae 3d a8 cc d7 bd ed bd dd 3c 92 e0 a3 bd
       0.0850867 -0.10537082 0.027068103 -0.08001818
0001c0 62 41 48 bd 3f c2 4b bd 80 22 b4 bd 49 c5 10 3d
       -0.04889048 -0.049745794 -0.08795643 0.035344396
0001d0 99 a4 88 ba 9b 1c d2 bd d5 cc ae 3d 04 2a cf bd
       -0.001042503 -0.10259362 0.08535162 -0.10115436
0001e0 67 8e 36 3d d4 be 08 3e 84 30 d1 bd f0 27 a3 bd
       0.0445694 0.13354045 -0.10214332 -0.07966602
0001f0 d4 b6 67 3d b2 cb 30 bc 07 ee 3e bc e4 59 0e bc
       0.056570843 -0.010790752 -0.01165343 -0.008688424
000200 cf 34 57 3d 41 b4 5f bd 4d 00 78 3d 6b 10 ff 3c
       0.052540597 -0.054615263 0.06054716 0.031135758
000210 c9 43 5f bd bb 85 d3 bd 23 1e f3 3d 87 34 0b 3e
       -0.054508004 -0.103282414 0.118709825 0.13594256
000220 ba d5 cc 3d 5c 80 c6 bd bf b2 25 3d ae 90 04 be
       0.100017026 -0.09692451 0.04045367 -0.12945816
000230 04 0a ef bc 69 b4 da bd 74 7a 3d 3c a3 e9 cd 3d
       -0.02917958 -0.10678942 0.01156484 0.10054328
000240 1e 3b 6e bd 37 b5 44 3d f0 13 1a bd c0 38 a5 bd
       -0.058161847 0.048024382 -0.03761667 -0.08067465
000250 3d af 74 3d eb 2e ab 3d e3 c7 a0 bd 5d 95 a4 3d
       0.059737433 0.08358558 -0.07850625 0.08036301
000260 30 08 d5 3d 5f 1f 12 bd 6c 7e f8 bb c9 36 dc 3c
       0.10401952 -0.03567445 -0.00758343 0.026881592
000270 2d d8 67 bd ef 60 e1 3b af 74 41 3d 2e bc bc bc
       -0.056602646 0.0068780105 0.04723042 -0.02303895
000280 b3 28 84 3d 58 68 86 3d e3 3c c4 bd 9b e5 d5 bd
       0.06453075 0.06562871 -0.09581926 -0.104441844
000290 3d 89 04 bd 7a f0 e1 3d 24 77 b2 bc 2f 53 b9 3a
       -0.032357443 0.110321954 -0.021785326 0.001413917
0002a0 90 1d a0 bd 93 29 a0 bb 1a 00 a8 bd 0b 01 64 bd
       -0.078181386 -0.0048877685 -0.08203144 -0.055665057
0002b0 08 05 93 bd 88 33 98 bd 50 ff e2 bd cb 1e 9a bd
       -0.07178694 -0.07431704 -0.11083853 -0.075254045
0002c0 cb a6 87 3d 67 31 92 bd a1 dc ed 3d ab a2 30 bd
       0.0662361 -0.07138329 0.11614347 -0.043123882
0002d0 1d 78 01 3e 99 f6 93 3c 0d d2 0b 3e 74 df 85 bc
       0.12643476 0.018061923 0.13654347 -0.016341902
0002e0 94 26 9a bd bc 73 f6 bd 06 e0 5e 3e 35 24 28 3d
       -0.075268894 -0.12033793 0.21765146 0.041050155
0002f0 d8 fc 3d 3c 05 1e b1 bb fb 4f e1 bd 31 3e ee bc
       0.011595927 -0.00540519 -0.11001583 -0.02908239
000300 7e 45 71 bd 4b be 53 bd a1 81 87 bd 42 4f 4a 3d
       -0.058904164 -0.05169515 -0.066165216 0.049391992
000310 c8 41 0d 3c 10 a3 da bc bd 71 5a bc 2e 19 6e bd
       0.0086216405 -0.026689082 -0.013332781 -0.058129482
000320 ee 0c 0c 3c 7e 23 86 bd 31 e7 73 bc 7f 1f a1 3d
       0.008548005 -0.06549738 -0.014886663 0.078673355
000330 a2 cd 12 be e6 c2 00 be 07 d6 e2 bc 94 bb 6e bd
       -0.14336255 -0.12574348 -0.027689947 -0.058284357
000340 ae 9b e8 bd ce d3 d7 3c 77 4b 6f bb 32 d1 ea bd
       -0.113578185 0.026346114 -0.0036513486 -0.11465682
000350 d1 68 c7 bd 18 72 89 bd c7 c9 f5 3d 76 bb 0e 3e
       -0.09736789 -0.06711215 0.120013766 0.13938698
000360 33 c0 eb bd 92 82 0e 3e d9 49 4e 3d 35 98 a6 3d
       -0.115112685 0.13916996 0.050363395 0.081345
000370 d8 f7 22 bd fa 76 35 bc 73 16 60 bc c3 f9 88 3c
       -0.039787143 -0.0110757295 -0.013677227 0.016720658
000380 05 b1 c6 3d 06 7f de bc 2f 51 cf 3a 66 7f a9 3d
       0.097017325 -0.027160179 0.0015817041 0.082762524
000390 fc ac d7 3d f6 c9 75 bd 92 17 76 3d 27 e1 10 3e
       0.10531041 -0.060007058 0.060081072 0.14148389
0003a0 6a ae e1 3d f7 08 aa 3c 1f 54 7a bd d4 3f 83 3c
       0.11019595 0.020756228 -0.06111538 0.016021647
0003b0 4a d9 82 bd af 52 5a bd 19 6b c1 3d f6 fa 8c 3c
       -0.06389101 -0.05330151 0.094442554 0.017209511
0003c0 85 4f c7 bc e2 5e 29 3d ec 30 de 3d 7a 65 af bd
       -0.02432991 0.041350253 0.10849175 -0.08564277
0003d0 9a 8b b9 3c 2c 28 d8 3d 77 89 a4 bb d9 63 f6 3d
       0.022649575 0.10554537 -0.00502127 0.12030763
0003e0 3f 82 4e bd 85 34 4d 3b 6c ff a1 bc 38 fc 31 bc
       -0.05041718 0.0031311822 -0.019775115 -0.010863356
0003f0 c7 c9 3d 3d 37 d8 95 bd f8 fc d1 bc 96 c4 b7 3d
       0.046335008 -0.0731663 -0.02563332 0.08973043

res_se1.se.compress.bias f4 [16]
000000 91 bd 1c be d9 36 21 3e e5 c8 fa 3d 3a bf 0a 3e
       -0.15306689 0.15743579 0.12245349 0.1354951
000010 a0 65 8a 3d 7f 41 13 3c 96 16 b6 3a 9e 7b 9c 3d
       0.06757665 0.008987783 0.0013892229 0.076407656
000020 5f ad 0c 3e d0 53 f6 bd ae 8e 22 3c 65 6e 7d bd
       0.13738011 -0.12027705 0.009921713 -0.06187286
000030 76 f5 c4 3d f8 b6 25 3e 31 1e a5 3d 6b 5e 02 3d
       0.096171305 0.16183078 0.08062399 0.031828325

res_se1.se.excitation.weight f4 [64, 16, 1, 1]
000000 40 b1 dd bd ab ee f5 bd de e6 8a 3e f5 71 21 be
       -0.108248234 -0.12008413 0.27129263 -0.15766127
000010 2a 29 3b be be c2 65 be 8b c2 a6 bd 97 9f 13 be
       -0.18277422 -0.2243757 -0.08142575 -0.14416347
000020 5c 2b 83 be c6 15 df 3d 7e a7 8f be 40 42 d0 3c
       -0.25619018 0.10892825 -0.28057474 0.025422215
000030 4d bb 1e be 9c 10 3e be 53 d7 94 3d 24 90 0e bd
       -0.15501137 -0.18561023 0.07267632 -0.034805432
000040 51 4b 13 3c af 52 88 bd 6c 6c 28 3c 49 c3 38 3e
       0.008990125 -0.06656396 0.010279756 0.18043245
000050 78 18 d3 3d 47 2c 1b 3e 8d f2 98 bd 69 7b e0 3c
       0.103074014 0.15153609 -0.07468138 0.027402597
000060 f3 34 45 3e 13 c1 f6 3d 5c 2e 07 be b0 fd 0f 3c
       0.1925848 0.12048545 -0.13201278 0.008788511
000070 2c fd 06 3e f4 86 33 bd 5d 86 41 3d 34 8a 95 be
       0.13182515 -0.043829873 0.04724728 -0.29207003
000080 8b 96 1e be cf 54 5d bd a1 ac 36 be 39 e0 93 3c
       -0.15487115 -0.054035958 -0.1783929 0.018051254
000090 aa ea 4f 3e b6 81 ad 3d 3d 1f 03 be 13 7f 89 3e
       0.20304361 0.08472006 -0.12804885 0.26854762
0000a0 01 bc 7e be ce 1a c5 3d 60 03 14 3d 92 07 8c bd
       -0.24876405 0.09624253 0.03613603 -0.068373814
0000b0 5d b1 1e 3e ab d6 42 be d2 14 eb 3d a0 bc 1e 3d
       0.15497346 -0.19027202 0.114785805 0.038754106
0000c0 17 73 d3 3d a0 fb 14 3e ee 62 83 bd 44 be ad 3d
       0.10324686 0.14549112 -0.06415354 0.08483556
0000d0 41 71 da bd 75 07 3e 3e 27 3e fb bd 93 3a 2b 3d
       -0.10666133 0.18557532 -0.12267714 0.041803908
0000e0 2f 2c 12 3e c1 50 cb 3d 96 0f e1 3d cf 73 14 be
       0.14274667 0.09927512 0.10989301 -0.14497302
0000f0 b4 cd 3d 3e bc 88 36 be c8 42 f5 bd da 63 3b be
       0.18535501 -0.17825598 -0.11975628 -0.18299809
000100 c7 c7 a5 bd 92 93 4f bc f9 97 10 be 7d 4f 70 3d
       -0.08094745 -0.012669461 -0.14120473 0.058669556
000110 f0 07 2f be 02 8c 05 bd 3d 0c 35 bc 7c 0a af 3d
       -0.17092872 -0.032604225 -0.011050281 0.085469216
000120 7d 70 21 3d 5a 1b 7d be 40 f9 07 bc 48 a1 18 3c
       0.039413918 -0.24717465 -0.008299172 0.009315796
000130 e3 2a 46 3e 5c da 5f be 0f 47 1f bc bb e3 14 be
       0.19352297 -0.21860641 -0.0097215315 -0.14539997
000140 1a db 13 be 9a b0 f6 3d 20 d5 7f be c5 ed f9 bd
       -0.1443905 0.12045403 -0.24983644 -0.12203554
000150 7e 2d 0a 3e ba af 06 bd 6e 11 2d be eb 00 dd bc
       0.13493916 -0.03288243 -0.1690118 -0.026977977
000160 72 a3 59 3e 97 9b d1 b9 48 2a 48 bd 44 be 48 3e
       0.21253756 -0.0003997951 -0.048868448 0.1960383
000170 b1 8e 09 3e 5a 63 f5 bd 8c fa 2f bc 2d 77 8c 3d
       0.13433339 -0.119818404 -0.010740887 0.068586685
000180 c0 51 a6 bd 9d 16 5a 3e fe 46 1b 3e ee 7c 81 3e
       -0.08121061 0.21297689 0.151638 0.25290626
000190 da 29 33 be 0f 64 a6 be 91 05 43 be 39 94 65 be
       -0.17496434 -0.32498214 -0.19045092 -0.22419824
0001a0 0c 80 2d 3e 3e 82 f4 3d 79 45 36 be 8b 95 43 be
       0.16943377 0.11938904 -0.17799939 -0.19100015
0001b0 79 92 9c be 0d 8a 19 be 02 8e d8 3d e5 50 05 3e
       -0.305805 -0.14994068 0.10573961 0.1301914
0001c0 7f 0f f1 bd dd 88 1d be bc 8c 17 be 15 0f 20 be
       -0.11770534 -0.1538424 -0.1479978 -0.15630753
0001d0 13 ef 4e 3e 02 a9 aa bd 8a 42 89 be 96 b2 1f be
       0.20208387 -0.08333017 -0.26808578 -0.15595469
0001e0 05 93 2b be e0 68 76 bd 84 eb f7 3d 5a 3c 8f bd
       -0.16755302 -0.06015861 0.12105468 -0.06993933
0001f0 04 af 39 be 47 0d e1 bc bf c4 67 3c 3c 56 88 bd
       -0.1813317 -0.027472151 0.014146029 -0.06657073
000200 28 33 68 be 55 69 e9 3d 09 0e 83 bd 32 7d 0c be
       -0.22675765 0.113970436 -0.06399161 -0.13719633
000210 bd d3 e5 bd 58 31 aa be fb 3c b6 bd a1 9a d2 bb
       -0.112220265 -0.3324077 -0.0889835 -0.0064271246
000220 37 69 91 3d 58 ca 4a be 19 ca 07 be 9b f8 1e be
       0.07100146 -0.1980375 -0.13260688 -0.15524523
000230 ff 4e 23 3d 45 01 8e bd f5 78 fc bc c9 6a 97 be
       0.03987026 -0.06933836 -0.030819396 -0.29573658
000240 13 bb ed 3c fd 49 7e be 36 1d aa bd 0d 4d 7f be
       0.029019868 -0.24832912 -0.08306353 -0.24931736
000250 97 c5 49 be 92 13 00 bd 74 fa 52 3e 4e 0b 8d be
       -0.19704281 -0.031268664 0.20603353 -0.27547687
000260 c7 d3 88 3d 13 3b 06 bd 2c aa a4 bd 83 ca e2 3c
       0.06681018 -0.03277118 -0.0804027 0.027684456
000270 0d 39 91 3e e4 00 1a be e2 84 e2 bc 02 a0 80 be
       0.2836384 -0.15039402 -0.027651254 -0.25122076
000280 53 34 65 bc d6 66 2e bd 1a 84 9b bd 71 12 64 3e
       -0.013989526 -0.04257854 -0.07593556 0.2227266
000290 a4 8b 6c bd 12 53 1c 3e 78 27 25 be 8a 60 4d 3d
       -0.05775036 0.15266064 -0.16128337 0.050140895
0002a0 0a cf c1 bd a7 e3 56 bd 1c 32 5d be 96 a6 34 be
       -0.09463318 -0.0524632 -0.21601146 -0.17641672
0002b0 43 81 1f 3d c6 d8 07 3d d6 a5 e8 3c 54 f4 00 3e
       0.038941633 0.033165716 0.02839939 0.12593204
0002c0 ed a2 30 3e 65 9c 27 be b5 2c 0d 3e d0 65 92 bd
       0.17249651 -0.16368254 0.13786586 -0.071483254
0002d0 a4 54 85 3e 1b 55 99 bd c2 51 a1 3d f5 90 14 be
       0.26041138 -0.07486936 0.07876922 -0.14508422
0002e0 30 34 91 bc e9 9e b7 bd a5 83 e5 bd b0 17 62 3d
       -0.01772508 -0.089658566 -0.1120675 0.05519837
0002f0 c7 b0 42 3e 45 7e 65 be ca 01 2d bd a7 ff ad 3d
       0.19012748 -0.22411449 -0.042238034 0.084960274
000300 03 c2 4b be 39 8a af bd 57 fd e1 3d 41 5d 90 bd
       -0.19898228 -0.08571286 0.11034649 -0.07049037
000310 54 c9 a1 bd 2a 06 5a be 29 92 39 3b 46 3c 99 bd
       -0.078997284 -0.21291414 0.0028315878 -0.07482199
000320 c6 96 a8 bc 23 92 00 3e ad 5b f9 3d 9e 53 05 be
       -0.020579707 0.12555747 0.12175689 -0.13020179
000330 60 91 65 3e 56 73 92 3d aa d6 31 bc 62 6b a3 be
       0.22418737 0.07150905 -0.010854403 -0.31917864
000340 9c 88 33 bd ad b7 5f be ae 84 0f 3e a5 89 98 3c
       -0.043831453 -0.2184741 0.14015457 0.018620322
000350 03 41 08 3e c2 f5 11 be f5 ca 74 be 72 6c 5c be
       0.1330605 -0.14253905 -0.23905547 -0.21525744
000360 10 30 35 be 72 6c bc 3d aa 6c 72 3d c9 f3 d4 3d
       -0.17694116 0.09200372 0.05918566 0.10398061
000370 25 84 0f 3e 0b 2d 1c be 24 79 c8 bd 8d 4b 77 be
       0.14015253 -0.15251558 -0.09788731 -0.24149914
000380 f4 09 81 3d 0e 1c 6c be e2 5b c7 3d 75 f3 74 3d
       0.063007265 -0.23057577 0.09734322 0.05980249
000390 d8 74 79 bd 2a 56 5b be 6b bc 59 3d ae 0a 3a 3e
       -0.060902447 -0.21419588 0.053158205 0.18168136
0003a0 41 0c c6 3c ff 31 95 3e d5 fa 4c be a6 92 bd 3d
       0.024175765 0.29139706 -0.2001756 0.092564866
0003b0 9d 42 4a be 0c 9a 8b be e0 a0 c3 3d 4c e7 a3 3d
       -0.19751973 -0.27265966 0.09552169 0.08003101
0003c0 d7 59 5c be d7 86 11 3e b2 24 14 3e 6f a5 94 bd
       -0.21518646 0.14211594 0.14467123 -0.072581165
0003d0 fd 58 e8 bc b7 f4 7c 3e dd 44 3a be c0 4a 2f be
       -0.028362745 0.24702726 -0.18190332 -0.17118359
0003e0 20 90 10 be 3e 7e 85 3e f5 b9 5d be c5 7a 4b be
       -0.1411748 0.26072878 -0.21652968 -0.19871052
0003f0 86 4b 8d 3d 85 c0 6d be bf 43 ae bd 44 00 14 3e
       0.068991706 -0.23217972 -0.08509015 0.14453226
